{
  
    
        "post0": {
            "title": "Exporting PyTorch Lightning model to ONNX format",
            "content": "In this article, we will convert a deep learning model to ONNX format. We will a Lightning module based on the Efficientnet B1 and we will export it to onyx format. We will show two approaches: 1) Standard torch way of exporting the model to ONNX 2) Export using a torch lighting method . ONNX is an open format built to represent machine learning models. ONNX defines a common set of operators - the building blocks of machine learning and deep learning models - and a common file format to enable AI developers to use models with a variety of frameworks, tools, runtimes, and compilers. It is adopted and developed by several top-tier tech companies, such as Facebook, Microsoft, Amazon, and others. Models in onyx format can be easily deployed to various cloud platforms as well as to IoT devices. . !pip install pytorch-lightning==0.9.1rc3 !pip install efficientnet_pytorch !pip install onnx !pip install onnxruntime . Train the model . We will train a simple classification model, as input data, we will use cifar10. The model achieves ~90% accuracy, which is not perfect but since it is not the goal of this article we don&#39;t care. . Imports . import torch from torch import nn from torch.optim import lr_scheduler, Adam from torch.utils.data import DataLoader import torchvision import torchvision.transforms as transforms import pytorch_lightning as pl from pytorch_lightning.metrics import Recall, Accuracy from pytorch_lightning import Trainer from pytorch_lightning.callbacks import ModelCheckpoint from pytorch_lightning.loggers import TensorBoardLogger from efficientnet_pytorch import EfficientNet import os from tqdm.auto import tqdm from sklearn.metrics import classification_report . Datamodule . class ImageClassificationDatamodule(pl.LightningDataModule): def __init__(self, batch_size, train_transform, val_transform): super().__init__() self.batch_size = batch_size self.train_transform = train_transform self.val_transform = val_transform def setup(self, stage=None): self.train_set = torchvision.datasets.CIFAR10(root=&#39;./data&#39;, train=True, download=True, transform=self.train_transform) self.val_set = torchvision.datasets.CIFAR10(root=&#39;./data&#39;, train=False, download=True, transform=self.val_transform) def train_dataloader(self): return DataLoader(self.train_set, batch_size=self.batch_size, shuffle=True, num_workers=4) def val_dataloader(self): return DataLoader(self.val_set, batch_size=self.batch_size, shuffle=False, num_workers=4) . Lightning module . class ImageClassifier(pl.LightningModule): lr = 1e-3 def __init__(self): super().__init__() self.criterion = nn.CrossEntropyLoss() self.metrics = {&quot;accuracy&quot;: Accuracy(), &quot;recall&quot;: Recall()} self.model = EfficientNet.from_pretrained(&#39;efficientnet-b1&#39;, num_classes=10, in_channels=3) def forward(self, x): return self.model(x) def configure_optimizers(self): optimizer = Adam(self.parameters(), self.lr) scheduler = lr_scheduler.StepLR(optimizer, step_size=7, gamma=0.1) return [optimizer], [scheduler] def training_step(self, batch, batch_idx): x, y = batch logits = self.forward(x) loss = self.criterion(logits, y) tensorboard_logs = {&#39;train_loss&#39;: loss} return {&#39;loss&#39;: loss, &#39;log&#39;: tensorboard_logs} def validation_step(self, batch, batch_idx): x, y = batch logits = self.forward(x) loss = self.criterion(logits, y) metrics_dict = {f&quot;val_{name}&quot;: metric(logits, y) for name, metric in self.metrics.items()} return {**{&quot;val_loss&quot;: loss}, **metrics_dict} def validation_epoch_end(self, outputs): avg_loss = torch.stack([x[&quot;val_loss&quot;] for x in outputs]).mean() tensorboard_logs = {name: torch.stack([x[f&quot;val_{name}&quot;] for x in outputs]).mean() for name, metric in self.metrics.items()} tensorboard_logs[&quot;val_loss&quot;] = avg_loss return {&#39;avg_val_loss&#39;: avg_loss, &#39;log&#39;: tensorboard_logs} . Training loop . train_transform = transforms.Compose([ transforms.RandomCrop(32, padding=4), transforms.RandomHorizontalFlip(), transforms.ToTensor(), transforms.Normalize((0.4914, 0.4822, 0.4465), (0.2023, 0.1994, 0.2010)), ]) val_transform = transforms.Compose([ transforms.ToTensor(), transforms.Normalize((0.4914, 0.4822, 0.4465), (0.2023, 0.1994, 0.2010)), ]) dm = ImageClassificationDatamodule(128, train_transform, val_transform) model = ImageClassifier() checkpoint_callback = ModelCheckpoint( filepath=os.getcwd(), save_top_k=1, verbose=True, monitor=&#39;val_loss&#39;, mode=&#39;min&#39;, ) TENSORBOARD_DIRECTORY = &quot;logs/&quot; EXPERIMENT_NAME = &quot;efficienet_b1&quot; logger = TensorBoardLogger(TENSORBOARD_DIRECTORY, name=EXPERIMENT_NAME) #And then actual training trainer = Trainer(max_epochs=10, logger=logger, gpus=1, # precision=16, accumulate_grad_batches=4, deterministic=True, early_stop_callback=True, checkpoint_callback=checkpoint_callback, # resume_from_checkpoint = &#39;my_checkpoint.ckpt&#39; ) trainer.fit(model, dm) . /usr/local/lib/python3.6/dist-packages/pytorch_lightning/utilities/distributed.py:37: UserWarning: Checkpoint directory /content exists and is not empty with save_top_k != 0.All files in this directory will be deleted when a checkpoint is saved! warnings.warn(*args, **kwargs) GPU available: True, used: True TPU available: False, using: 0 TPU cores CUDA_VISIBLE_DEVICES: [0] . Loaded pretrained weights for efficientnet-b1 Files already downloaded and verified Files already downloaded and verified . | Name | Type | Params -- 0 | criterion | CrossEntropyLoss | 0 1 | model | EfficientNet | 6 M . . Epoch 00000: val_loss reached 1.02553 (best 1.02553), saving model to /content/epoch=0.ckpt as top 1 Epoch 00001: val_loss reached 0.75764 (best 0.75764), saving model to /content/epoch=1.ckpt as top 1 Epoch 00002: val_loss reached 0.64987 (best 0.64987), saving model to /content/epoch=2.ckpt as top 1 Epoch 00003: val_loss reached 0.61007 (best 0.61007), saving model to /content/epoch=3.ckpt as top 1 Epoch 00004: val_loss reached 0.54691 (best 0.54691), saving model to /content/epoch=4.ckpt as top 1 Epoch 00005: val_loss reached 0.53478 (best 0.53478), saving model to /content/epoch=5.ckpt as top 1 Epoch 00006: val_loss reached 0.50772 (best 0.50772), saving model to /content/epoch=6.ckpt as top 1 Epoch 00007: val_loss reached 0.46737 (best 0.46737), saving model to /content/epoch=7.ckpt as top 1 Epoch 00008: val_loss reached 0.46043 (best 0.46043), saving model to /content/epoch=8.ckpt as top 1 Epoch 00009: val_loss reached 0.45762 (best 0.45762), saving model to /content/epoch=9_v0.ckpt as top 1 Saving latest checkpoint.. . . 1 . Show some training statistics . %load_ext tensorboard %tensorboard --logdir logs . Reusing TensorBoard on port 6006 (pid 611), started 1:05:58 ago. (Use &#39;!kill 611&#39; to kill it.) . classes = (&#39;plane&#39;, &#39;car&#39;, &#39;bird&#39;, &#39;cat&#39;, &#39;deer&#39;, &#39;dog&#39;, &#39;frog&#39;, &#39;horse&#39;, &#39;ship&#39;, &#39;truck&#39;) . val_dl = DataLoader(torchvision.datasets.CIFAR10(root=&#39;./data&#39;, train=False, download=True, transform=val_transform), batch_size=128, shuffle=True, num_workers=4) . Files already downloaded and verified . model.to(&quot;cuda&quot;) model.eval() . ImageClassifier( (criterion): CrossEntropyLoss() (model): EfficientNet( (_conv_stem): Conv2dStaticSamePadding( 3, 32, kernel_size=(3, 3), stride=(2, 2), bias=False (static_padding): ZeroPad2d(padding=(1, 1, 1, 1), value=0.0) ) (_bn0): BatchNorm2d(32, eps=0.001, momentum=0.010000000000000009, affine=True, track_running_stats=True) (_blocks): ModuleList( (0): MBConvBlock( (_depthwise_conv): Conv2dStaticSamePadding( 32, 32, kernel_size=(3, 3), stride=[1, 1], groups=32, bias=False (static_padding): ZeroPad2d(padding=(1, 1, 1, 1), value=0.0) ) (_bn1): BatchNorm2d(32, eps=0.001, momentum=0.010000000000000009, affine=True, track_running_stats=True) (_se_reduce): Conv2dStaticSamePadding( 32, 8, kernel_size=(1, 1), stride=(1, 1) (static_padding): Identity() ) (_se_expand): Conv2dStaticSamePadding( 8, 32, kernel_size=(1, 1), stride=(1, 1) (static_padding): Identity() ) (_project_conv): Conv2dStaticSamePadding( 32, 16, kernel_size=(1, 1), stride=(1, 1), bias=False (static_padding): Identity() ) (_bn2): BatchNorm2d(16, eps=0.001, momentum=0.010000000000000009, affine=True, track_running_stats=True) (_swish): MemoryEfficientSwish() ) (1): MBConvBlock( (_depthwise_conv): Conv2dStaticSamePadding( 16, 16, kernel_size=(3, 3), stride=(1, 1), groups=16, bias=False (static_padding): ZeroPad2d(padding=(1, 1, 1, 1), value=0.0) ) (_bn1): BatchNorm2d(16, eps=0.001, momentum=0.010000000000000009, affine=True, track_running_stats=True) (_se_reduce): Conv2dStaticSamePadding( 16, 4, kernel_size=(1, 1), stride=(1, 1) (static_padding): Identity() ) (_se_expand): Conv2dStaticSamePadding( 4, 16, kernel_size=(1, 1), stride=(1, 1) (static_padding): Identity() ) (_project_conv): Conv2dStaticSamePadding( 16, 16, kernel_size=(1, 1), stride=(1, 1), bias=False (static_padding): Identity() ) (_bn2): BatchNorm2d(16, eps=0.001, momentum=0.010000000000000009, affine=True, track_running_stats=True) (_swish): MemoryEfficientSwish() ) (2): MBConvBlock( (_expand_conv): Conv2dStaticSamePadding( 16, 96, kernel_size=(1, 1), stride=(1, 1), bias=False (static_padding): Identity() ) (_bn0): BatchNorm2d(96, eps=0.001, momentum=0.010000000000000009, affine=True, track_running_stats=True) (_depthwise_conv): Conv2dStaticSamePadding( 96, 96, kernel_size=(3, 3), stride=[2, 2], groups=96, bias=False (static_padding): ZeroPad2d(padding=(1, 1, 1, 1), value=0.0) ) (_bn1): BatchNorm2d(96, eps=0.001, momentum=0.010000000000000009, affine=True, track_running_stats=True) (_se_reduce): Conv2dStaticSamePadding( 96, 4, kernel_size=(1, 1), stride=(1, 1) (static_padding): Identity() ) (_se_expand): Conv2dStaticSamePadding( 4, 96, kernel_size=(1, 1), stride=(1, 1) (static_padding): Identity() ) (_project_conv): Conv2dStaticSamePadding( 96, 24, kernel_size=(1, 1), stride=(1, 1), bias=False (static_padding): Identity() ) (_bn2): BatchNorm2d(24, eps=0.001, momentum=0.010000000000000009, affine=True, track_running_stats=True) (_swish): MemoryEfficientSwish() ) (3): MBConvBlock( (_expand_conv): Conv2dStaticSamePadding( 24, 144, kernel_size=(1, 1), stride=(1, 1), bias=False (static_padding): Identity() ) (_bn0): BatchNorm2d(144, eps=0.001, momentum=0.010000000000000009, affine=True, track_running_stats=True) (_depthwise_conv): Conv2dStaticSamePadding( 144, 144, kernel_size=(3, 3), stride=(1, 1), groups=144, bias=False (static_padding): ZeroPad2d(padding=(1, 1, 1, 1), value=0.0) ) (_bn1): BatchNorm2d(144, eps=0.001, momentum=0.010000000000000009, affine=True, track_running_stats=True) (_se_reduce): Conv2dStaticSamePadding( 144, 6, kernel_size=(1, 1), stride=(1, 1) (static_padding): Identity() ) (_se_expand): Conv2dStaticSamePadding( 6, 144, kernel_size=(1, 1), stride=(1, 1) (static_padding): Identity() ) (_project_conv): Conv2dStaticSamePadding( 144, 24, kernel_size=(1, 1), stride=(1, 1), bias=False (static_padding): Identity() ) (_bn2): BatchNorm2d(24, eps=0.001, momentum=0.010000000000000009, affine=True, track_running_stats=True) (_swish): MemoryEfficientSwish() ) (4): MBConvBlock( (_expand_conv): Conv2dStaticSamePadding( 24, 144, kernel_size=(1, 1), stride=(1, 1), bias=False (static_padding): Identity() ) (_bn0): BatchNorm2d(144, eps=0.001, momentum=0.010000000000000009, affine=True, track_running_stats=True) (_depthwise_conv): Conv2dStaticSamePadding( 144, 144, kernel_size=(3, 3), stride=(1, 1), groups=144, bias=False (static_padding): ZeroPad2d(padding=(1, 1, 1, 1), value=0.0) ) (_bn1): BatchNorm2d(144, eps=0.001, momentum=0.010000000000000009, affine=True, track_running_stats=True) (_se_reduce): Conv2dStaticSamePadding( 144, 6, kernel_size=(1, 1), stride=(1, 1) (static_padding): Identity() ) (_se_expand): Conv2dStaticSamePadding( 6, 144, kernel_size=(1, 1), stride=(1, 1) (static_padding): Identity() ) (_project_conv): Conv2dStaticSamePadding( 144, 24, kernel_size=(1, 1), stride=(1, 1), bias=False (static_padding): Identity() ) (_bn2): BatchNorm2d(24, eps=0.001, momentum=0.010000000000000009, affine=True, track_running_stats=True) (_swish): MemoryEfficientSwish() ) (5): MBConvBlock( (_expand_conv): Conv2dStaticSamePadding( 24, 144, kernel_size=(1, 1), stride=(1, 1), bias=False (static_padding): Identity() ) (_bn0): BatchNorm2d(144, eps=0.001, momentum=0.010000000000000009, affine=True, track_running_stats=True) (_depthwise_conv): Conv2dStaticSamePadding( 144, 144, kernel_size=(5, 5), stride=[2, 2], groups=144, bias=False (static_padding): ZeroPad2d(padding=(2, 2, 2, 2), value=0.0) ) (_bn1): BatchNorm2d(144, eps=0.001, momentum=0.010000000000000009, affine=True, track_running_stats=True) (_se_reduce): Conv2dStaticSamePadding( 144, 6, kernel_size=(1, 1), stride=(1, 1) (static_padding): Identity() ) (_se_expand): Conv2dStaticSamePadding( 6, 144, kernel_size=(1, 1), stride=(1, 1) (static_padding): Identity() ) (_project_conv): Conv2dStaticSamePadding( 144, 40, kernel_size=(1, 1), stride=(1, 1), bias=False (static_padding): Identity() ) (_bn2): BatchNorm2d(40, eps=0.001, momentum=0.010000000000000009, affine=True, track_running_stats=True) (_swish): MemoryEfficientSwish() ) (6): MBConvBlock( (_expand_conv): Conv2dStaticSamePadding( 40, 240, kernel_size=(1, 1), stride=(1, 1), bias=False (static_padding): Identity() ) (_bn0): BatchNorm2d(240, eps=0.001, momentum=0.010000000000000009, affine=True, track_running_stats=True) (_depthwise_conv): Conv2dStaticSamePadding( 240, 240, kernel_size=(5, 5), stride=(1, 1), groups=240, bias=False (static_padding): ZeroPad2d(padding=(2, 2, 2, 2), value=0.0) ) (_bn1): BatchNorm2d(240, eps=0.001, momentum=0.010000000000000009, affine=True, track_running_stats=True) (_se_reduce): Conv2dStaticSamePadding( 240, 10, kernel_size=(1, 1), stride=(1, 1) (static_padding): Identity() ) (_se_expand): Conv2dStaticSamePadding( 10, 240, kernel_size=(1, 1), stride=(1, 1) (static_padding): Identity() ) (_project_conv): Conv2dStaticSamePadding( 240, 40, kernel_size=(1, 1), stride=(1, 1), bias=False (static_padding): Identity() ) (_bn2): BatchNorm2d(40, eps=0.001, momentum=0.010000000000000009, affine=True, track_running_stats=True) (_swish): MemoryEfficientSwish() ) (7): MBConvBlock( (_expand_conv): Conv2dStaticSamePadding( 40, 240, kernel_size=(1, 1), stride=(1, 1), bias=False (static_padding): Identity() ) (_bn0): BatchNorm2d(240, eps=0.001, momentum=0.010000000000000009, affine=True, track_running_stats=True) (_depthwise_conv): Conv2dStaticSamePadding( 240, 240, kernel_size=(5, 5), stride=(1, 1), groups=240, bias=False (static_padding): ZeroPad2d(padding=(2, 2, 2, 2), value=0.0) ) (_bn1): BatchNorm2d(240, eps=0.001, momentum=0.010000000000000009, affine=True, track_running_stats=True) (_se_reduce): Conv2dStaticSamePadding( 240, 10, kernel_size=(1, 1), stride=(1, 1) (static_padding): Identity() ) (_se_expand): Conv2dStaticSamePadding( 10, 240, kernel_size=(1, 1), stride=(1, 1) (static_padding): Identity() ) (_project_conv): Conv2dStaticSamePadding( 240, 40, kernel_size=(1, 1), stride=(1, 1), bias=False (static_padding): Identity() ) (_bn2): BatchNorm2d(40, eps=0.001, momentum=0.010000000000000009, affine=True, track_running_stats=True) (_swish): MemoryEfficientSwish() ) (8): MBConvBlock( (_expand_conv): Conv2dStaticSamePadding( 40, 240, kernel_size=(1, 1), stride=(1, 1), bias=False (static_padding): Identity() ) (_bn0): BatchNorm2d(240, eps=0.001, momentum=0.010000000000000009, affine=True, track_running_stats=True) (_depthwise_conv): Conv2dStaticSamePadding( 240, 240, kernel_size=(3, 3), stride=[2, 2], groups=240, bias=False (static_padding): ZeroPad2d(padding=(1, 1, 1, 1), value=0.0) ) (_bn1): BatchNorm2d(240, eps=0.001, momentum=0.010000000000000009, affine=True, track_running_stats=True) (_se_reduce): Conv2dStaticSamePadding( 240, 10, kernel_size=(1, 1), stride=(1, 1) (static_padding): Identity() ) (_se_expand): Conv2dStaticSamePadding( 10, 240, kernel_size=(1, 1), stride=(1, 1) (static_padding): Identity() ) (_project_conv): Conv2dStaticSamePadding( 240, 80, kernel_size=(1, 1), stride=(1, 1), bias=False (static_padding): Identity() ) (_bn2): BatchNorm2d(80, eps=0.001, momentum=0.010000000000000009, affine=True, track_running_stats=True) (_swish): MemoryEfficientSwish() ) (9): MBConvBlock( (_expand_conv): Conv2dStaticSamePadding( 80, 480, kernel_size=(1, 1), stride=(1, 1), bias=False (static_padding): Identity() ) (_bn0): BatchNorm2d(480, eps=0.001, momentum=0.010000000000000009, affine=True, track_running_stats=True) (_depthwise_conv): Conv2dStaticSamePadding( 480, 480, kernel_size=(3, 3), stride=(1, 1), groups=480, bias=False (static_padding): ZeroPad2d(padding=(1, 1, 1, 1), value=0.0) ) (_bn1): BatchNorm2d(480, eps=0.001, momentum=0.010000000000000009, affine=True, track_running_stats=True) (_se_reduce): Conv2dStaticSamePadding( 480, 20, kernel_size=(1, 1), stride=(1, 1) (static_padding): Identity() ) (_se_expand): Conv2dStaticSamePadding( 20, 480, kernel_size=(1, 1), stride=(1, 1) (static_padding): Identity() ) (_project_conv): Conv2dStaticSamePadding( 480, 80, kernel_size=(1, 1), stride=(1, 1), bias=False (static_padding): Identity() ) (_bn2): BatchNorm2d(80, eps=0.001, momentum=0.010000000000000009, affine=True, track_running_stats=True) (_swish): MemoryEfficientSwish() ) (10): MBConvBlock( (_expand_conv): Conv2dStaticSamePadding( 80, 480, kernel_size=(1, 1), stride=(1, 1), bias=False (static_padding): Identity() ) (_bn0): BatchNorm2d(480, eps=0.001, momentum=0.010000000000000009, affine=True, track_running_stats=True) (_depthwise_conv): Conv2dStaticSamePadding( 480, 480, kernel_size=(3, 3), stride=(1, 1), groups=480, bias=False (static_padding): ZeroPad2d(padding=(1, 1, 1, 1), value=0.0) ) (_bn1): BatchNorm2d(480, eps=0.001, momentum=0.010000000000000009, affine=True, track_running_stats=True) (_se_reduce): Conv2dStaticSamePadding( 480, 20, kernel_size=(1, 1), stride=(1, 1) (static_padding): Identity() ) (_se_expand): Conv2dStaticSamePadding( 20, 480, kernel_size=(1, 1), stride=(1, 1) (static_padding): Identity() ) (_project_conv): Conv2dStaticSamePadding( 480, 80, kernel_size=(1, 1), stride=(1, 1), bias=False (static_padding): Identity() ) (_bn2): BatchNorm2d(80, eps=0.001, momentum=0.010000000000000009, affine=True, track_running_stats=True) (_swish): MemoryEfficientSwish() ) (11): MBConvBlock( (_expand_conv): Conv2dStaticSamePadding( 80, 480, kernel_size=(1, 1), stride=(1, 1), bias=False (static_padding): Identity() ) (_bn0): BatchNorm2d(480, eps=0.001, momentum=0.010000000000000009, affine=True, track_running_stats=True) (_depthwise_conv): Conv2dStaticSamePadding( 480, 480, kernel_size=(3, 3), stride=(1, 1), groups=480, bias=False (static_padding): ZeroPad2d(padding=(1, 1, 1, 1), value=0.0) ) (_bn1): BatchNorm2d(480, eps=0.001, momentum=0.010000000000000009, affine=True, track_running_stats=True) (_se_reduce): Conv2dStaticSamePadding( 480, 20, kernel_size=(1, 1), stride=(1, 1) (static_padding): Identity() ) (_se_expand): Conv2dStaticSamePadding( 20, 480, kernel_size=(1, 1), stride=(1, 1) (static_padding): Identity() ) (_project_conv): Conv2dStaticSamePadding( 480, 80, kernel_size=(1, 1), stride=(1, 1), bias=False (static_padding): Identity() ) (_bn2): BatchNorm2d(80, eps=0.001, momentum=0.010000000000000009, affine=True, track_running_stats=True) (_swish): MemoryEfficientSwish() ) (12): MBConvBlock( (_expand_conv): Conv2dStaticSamePadding( 80, 480, kernel_size=(1, 1), stride=(1, 1), bias=False (static_padding): Identity() ) (_bn0): BatchNorm2d(480, eps=0.001, momentum=0.010000000000000009, affine=True, track_running_stats=True) (_depthwise_conv): Conv2dStaticSamePadding( 480, 480, kernel_size=(5, 5), stride=[1, 1], groups=480, bias=False (static_padding): ZeroPad2d(padding=(2, 2, 2, 2), value=0.0) ) (_bn1): BatchNorm2d(480, eps=0.001, momentum=0.010000000000000009, affine=True, track_running_stats=True) (_se_reduce): Conv2dStaticSamePadding( 480, 20, kernel_size=(1, 1), stride=(1, 1) (static_padding): Identity() ) (_se_expand): Conv2dStaticSamePadding( 20, 480, kernel_size=(1, 1), stride=(1, 1) (static_padding): Identity() ) (_project_conv): Conv2dStaticSamePadding( 480, 112, kernel_size=(1, 1), stride=(1, 1), bias=False (static_padding): Identity() ) (_bn2): BatchNorm2d(112, eps=0.001, momentum=0.010000000000000009, affine=True, track_running_stats=True) (_swish): MemoryEfficientSwish() ) (13): MBConvBlock( (_expand_conv): Conv2dStaticSamePadding( 112, 672, kernel_size=(1, 1), stride=(1, 1), bias=False (static_padding): Identity() ) (_bn0): BatchNorm2d(672, eps=0.001, momentum=0.010000000000000009, affine=True, track_running_stats=True) (_depthwise_conv): Conv2dStaticSamePadding( 672, 672, kernel_size=(5, 5), stride=(1, 1), groups=672, bias=False (static_padding): ZeroPad2d(padding=(2, 2, 2, 2), value=0.0) ) (_bn1): BatchNorm2d(672, eps=0.001, momentum=0.010000000000000009, affine=True, track_running_stats=True) (_se_reduce): Conv2dStaticSamePadding( 672, 28, kernel_size=(1, 1), stride=(1, 1) (static_padding): Identity() ) (_se_expand): Conv2dStaticSamePadding( 28, 672, kernel_size=(1, 1), stride=(1, 1) (static_padding): Identity() ) (_project_conv): Conv2dStaticSamePadding( 672, 112, kernel_size=(1, 1), stride=(1, 1), bias=False (static_padding): Identity() ) (_bn2): BatchNorm2d(112, eps=0.001, momentum=0.010000000000000009, affine=True, track_running_stats=True) (_swish): MemoryEfficientSwish() ) (14): MBConvBlock( (_expand_conv): Conv2dStaticSamePadding( 112, 672, kernel_size=(1, 1), stride=(1, 1), bias=False (static_padding): Identity() ) (_bn0): BatchNorm2d(672, eps=0.001, momentum=0.010000000000000009, affine=True, track_running_stats=True) (_depthwise_conv): Conv2dStaticSamePadding( 672, 672, kernel_size=(5, 5), stride=(1, 1), groups=672, bias=False (static_padding): ZeroPad2d(padding=(2, 2, 2, 2), value=0.0) ) (_bn1): BatchNorm2d(672, eps=0.001, momentum=0.010000000000000009, affine=True, track_running_stats=True) (_se_reduce): Conv2dStaticSamePadding( 672, 28, kernel_size=(1, 1), stride=(1, 1) (static_padding): Identity() ) (_se_expand): Conv2dStaticSamePadding( 28, 672, kernel_size=(1, 1), stride=(1, 1) (static_padding): Identity() ) (_project_conv): Conv2dStaticSamePadding( 672, 112, kernel_size=(1, 1), stride=(1, 1), bias=False (static_padding): Identity() ) (_bn2): BatchNorm2d(112, eps=0.001, momentum=0.010000000000000009, affine=True, track_running_stats=True) (_swish): MemoryEfficientSwish() ) (15): MBConvBlock( (_expand_conv): Conv2dStaticSamePadding( 112, 672, kernel_size=(1, 1), stride=(1, 1), bias=False (static_padding): Identity() ) (_bn0): BatchNorm2d(672, eps=0.001, momentum=0.010000000000000009, affine=True, track_running_stats=True) (_depthwise_conv): Conv2dStaticSamePadding( 672, 672, kernel_size=(5, 5), stride=(1, 1), groups=672, bias=False (static_padding): ZeroPad2d(padding=(2, 2, 2, 2), value=0.0) ) (_bn1): BatchNorm2d(672, eps=0.001, momentum=0.010000000000000009, affine=True, track_running_stats=True) (_se_reduce): Conv2dStaticSamePadding( 672, 28, kernel_size=(1, 1), stride=(1, 1) (static_padding): Identity() ) (_se_expand): Conv2dStaticSamePadding( 28, 672, kernel_size=(1, 1), stride=(1, 1) (static_padding): Identity() ) (_project_conv): Conv2dStaticSamePadding( 672, 112, kernel_size=(1, 1), stride=(1, 1), bias=False (static_padding): Identity() ) (_bn2): BatchNorm2d(112, eps=0.001, momentum=0.010000000000000009, affine=True, track_running_stats=True) (_swish): MemoryEfficientSwish() ) (16): MBConvBlock( (_expand_conv): Conv2dStaticSamePadding( 112, 672, kernel_size=(1, 1), stride=(1, 1), bias=False (static_padding): Identity() ) (_bn0): BatchNorm2d(672, eps=0.001, momentum=0.010000000000000009, affine=True, track_running_stats=True) (_depthwise_conv): Conv2dStaticSamePadding( 672, 672, kernel_size=(5, 5), stride=[2, 2], groups=672, bias=False (static_padding): ZeroPad2d(padding=(2, 2, 2, 2), value=0.0) ) (_bn1): BatchNorm2d(672, eps=0.001, momentum=0.010000000000000009, affine=True, track_running_stats=True) (_se_reduce): Conv2dStaticSamePadding( 672, 28, kernel_size=(1, 1), stride=(1, 1) (static_padding): Identity() ) (_se_expand): Conv2dStaticSamePadding( 28, 672, kernel_size=(1, 1), stride=(1, 1) (static_padding): Identity() ) (_project_conv): Conv2dStaticSamePadding( 672, 192, kernel_size=(1, 1), stride=(1, 1), bias=False (static_padding): Identity() ) (_bn2): BatchNorm2d(192, eps=0.001, momentum=0.010000000000000009, affine=True, track_running_stats=True) (_swish): MemoryEfficientSwish() ) (17): MBConvBlock( (_expand_conv): Conv2dStaticSamePadding( 192, 1152, kernel_size=(1, 1), stride=(1, 1), bias=False (static_padding): Identity() ) (_bn0): BatchNorm2d(1152, eps=0.001, momentum=0.010000000000000009, affine=True, track_running_stats=True) (_depthwise_conv): Conv2dStaticSamePadding( 1152, 1152, kernel_size=(5, 5), stride=(1, 1), groups=1152, bias=False (static_padding): ZeroPad2d(padding=(2, 2, 2, 2), value=0.0) ) (_bn1): BatchNorm2d(1152, eps=0.001, momentum=0.010000000000000009, affine=True, track_running_stats=True) (_se_reduce): Conv2dStaticSamePadding( 1152, 48, kernel_size=(1, 1), stride=(1, 1) (static_padding): Identity() ) (_se_expand): Conv2dStaticSamePadding( 48, 1152, kernel_size=(1, 1), stride=(1, 1) (static_padding): Identity() ) (_project_conv): Conv2dStaticSamePadding( 1152, 192, kernel_size=(1, 1), stride=(1, 1), bias=False (static_padding): Identity() ) (_bn2): BatchNorm2d(192, eps=0.001, momentum=0.010000000000000009, affine=True, track_running_stats=True) (_swish): MemoryEfficientSwish() ) (18): MBConvBlock( (_expand_conv): Conv2dStaticSamePadding( 192, 1152, kernel_size=(1, 1), stride=(1, 1), bias=False (static_padding): Identity() ) (_bn0): BatchNorm2d(1152, eps=0.001, momentum=0.010000000000000009, affine=True, track_running_stats=True) (_depthwise_conv): Conv2dStaticSamePadding( 1152, 1152, kernel_size=(5, 5), stride=(1, 1), groups=1152, bias=False (static_padding): ZeroPad2d(padding=(2, 2, 2, 2), value=0.0) ) (_bn1): BatchNorm2d(1152, eps=0.001, momentum=0.010000000000000009, affine=True, track_running_stats=True) (_se_reduce): Conv2dStaticSamePadding( 1152, 48, kernel_size=(1, 1), stride=(1, 1) (static_padding): Identity() ) (_se_expand): Conv2dStaticSamePadding( 48, 1152, kernel_size=(1, 1), stride=(1, 1) (static_padding): Identity() ) (_project_conv): Conv2dStaticSamePadding( 1152, 192, kernel_size=(1, 1), stride=(1, 1), bias=False (static_padding): Identity() ) (_bn2): BatchNorm2d(192, eps=0.001, momentum=0.010000000000000009, affine=True, track_running_stats=True) (_swish): MemoryEfficientSwish() ) (19): MBConvBlock( (_expand_conv): Conv2dStaticSamePadding( 192, 1152, kernel_size=(1, 1), stride=(1, 1), bias=False (static_padding): Identity() ) (_bn0): BatchNorm2d(1152, eps=0.001, momentum=0.010000000000000009, affine=True, track_running_stats=True) (_depthwise_conv): Conv2dStaticSamePadding( 1152, 1152, kernel_size=(5, 5), stride=(1, 1), groups=1152, bias=False (static_padding): ZeroPad2d(padding=(2, 2, 2, 2), value=0.0) ) (_bn1): BatchNorm2d(1152, eps=0.001, momentum=0.010000000000000009, affine=True, track_running_stats=True) (_se_reduce): Conv2dStaticSamePadding( 1152, 48, kernel_size=(1, 1), stride=(1, 1) (static_padding): Identity() ) (_se_expand): Conv2dStaticSamePadding( 48, 1152, kernel_size=(1, 1), stride=(1, 1) (static_padding): Identity() ) (_project_conv): Conv2dStaticSamePadding( 1152, 192, kernel_size=(1, 1), stride=(1, 1), bias=False (static_padding): Identity() ) (_bn2): BatchNorm2d(192, eps=0.001, momentum=0.010000000000000009, affine=True, track_running_stats=True) (_swish): MemoryEfficientSwish() ) (20): MBConvBlock( (_expand_conv): Conv2dStaticSamePadding( 192, 1152, kernel_size=(1, 1), stride=(1, 1), bias=False (static_padding): Identity() ) (_bn0): BatchNorm2d(1152, eps=0.001, momentum=0.010000000000000009, affine=True, track_running_stats=True) (_depthwise_conv): Conv2dStaticSamePadding( 1152, 1152, kernel_size=(5, 5), stride=(1, 1), groups=1152, bias=False (static_padding): ZeroPad2d(padding=(2, 2, 2, 2), value=0.0) ) (_bn1): BatchNorm2d(1152, eps=0.001, momentum=0.010000000000000009, affine=True, track_running_stats=True) (_se_reduce): Conv2dStaticSamePadding( 1152, 48, kernel_size=(1, 1), stride=(1, 1) (static_padding): Identity() ) (_se_expand): Conv2dStaticSamePadding( 48, 1152, kernel_size=(1, 1), stride=(1, 1) (static_padding): Identity() ) (_project_conv): Conv2dStaticSamePadding( 1152, 192, kernel_size=(1, 1), stride=(1, 1), bias=False (static_padding): Identity() ) (_bn2): BatchNorm2d(192, eps=0.001, momentum=0.010000000000000009, affine=True, track_running_stats=True) (_swish): MemoryEfficientSwish() ) (21): MBConvBlock( (_expand_conv): Conv2dStaticSamePadding( 192, 1152, kernel_size=(1, 1), stride=(1, 1), bias=False (static_padding): Identity() ) (_bn0): BatchNorm2d(1152, eps=0.001, momentum=0.010000000000000009, affine=True, track_running_stats=True) (_depthwise_conv): Conv2dStaticSamePadding( 1152, 1152, kernel_size=(3, 3), stride=[1, 1], groups=1152, bias=False (static_padding): ZeroPad2d(padding=(1, 1, 1, 1), value=0.0) ) (_bn1): BatchNorm2d(1152, eps=0.001, momentum=0.010000000000000009, affine=True, track_running_stats=True) (_se_reduce): Conv2dStaticSamePadding( 1152, 48, kernel_size=(1, 1), stride=(1, 1) (static_padding): Identity() ) (_se_expand): Conv2dStaticSamePadding( 48, 1152, kernel_size=(1, 1), stride=(1, 1) (static_padding): Identity() ) (_project_conv): Conv2dStaticSamePadding( 1152, 320, kernel_size=(1, 1), stride=(1, 1), bias=False (static_padding): Identity() ) (_bn2): BatchNorm2d(320, eps=0.001, momentum=0.010000000000000009, affine=True, track_running_stats=True) (_swish): MemoryEfficientSwish() ) (22): MBConvBlock( (_expand_conv): Conv2dStaticSamePadding( 320, 1920, kernel_size=(1, 1), stride=(1, 1), bias=False (static_padding): Identity() ) (_bn0): BatchNorm2d(1920, eps=0.001, momentum=0.010000000000000009, affine=True, track_running_stats=True) (_depthwise_conv): Conv2dStaticSamePadding( 1920, 1920, kernel_size=(3, 3), stride=(1, 1), groups=1920, bias=False (static_padding): ZeroPad2d(padding=(1, 1, 1, 1), value=0.0) ) (_bn1): BatchNorm2d(1920, eps=0.001, momentum=0.010000000000000009, affine=True, track_running_stats=True) (_se_reduce): Conv2dStaticSamePadding( 1920, 80, kernel_size=(1, 1), stride=(1, 1) (static_padding): Identity() ) (_se_expand): Conv2dStaticSamePadding( 80, 1920, kernel_size=(1, 1), stride=(1, 1) (static_padding): Identity() ) (_project_conv): Conv2dStaticSamePadding( 1920, 320, kernel_size=(1, 1), stride=(1, 1), bias=False (static_padding): Identity() ) (_bn2): BatchNorm2d(320, eps=0.001, momentum=0.010000000000000009, affine=True, track_running_stats=True) (_swish): MemoryEfficientSwish() ) ) (_conv_head): Conv2dStaticSamePadding( 320, 1280, kernel_size=(1, 1), stride=(1, 1), bias=False (static_padding): Identity() ) (_bn1): BatchNorm2d(1280, eps=0.001, momentum=0.010000000000000009, affine=True, track_running_stats=True) (_avg_pooling): AdaptiveAvgPool2d(output_size=1) (_dropout): Dropout(p=0.2, inplace=False) (_fc): Linear(in_features=1280, out_features=10, bias=True) (_swish): MemoryEfficientSwish() ) ) . predictions = [] targets = [] for X, y in tqdm(val_dl): outputs = torch.nn.Softmax(dim=1)(model(X.to(&quot;cuda&quot;))) _, predicted = torch.max(outputs, 1) predictions.append(predicted.detach()) targets.append(y.detach()) . . predictions = (torch.cat(predictions)).cpu().numpy() targets = (torch.cat(targets)).cpu().numpy() . print(classification_report(targets, predictions, target_names=classes)) . precision recall f1-score support plane 0.82 0.87 0.85 1000 car 0.92 0.90 0.91 1000 bird 0.84 0.78 0.81 1000 cat 0.72 0.68 0.70 1000 deer 0.80 0.87 0.83 1000 dog 0.80 0.74 0.77 1000 frog 0.85 0.92 0.89 1000 horse 0.89 0.86 0.88 1000 ship 0.90 0.90 0.90 1000 truck 0.88 0.91 0.89 1000 accuracy 0.84 10000 macro avg 0.84 0.84 0.84 10000 weighted avg 0.84 0.84 0.84 10000 . Converting the trained model to ONNX . After the model is trained we can convert it to the ONNX format . Do the example prediction . ONNX needs some input data, so it knows its shape. Since we already have a dataloader we don&#39;t need to create dummy random data of the wanted shape . X, y = next(iter(val_dl)) print(f&quot;Model input: {X.size()}&quot;) torch_out = model(X.to(&quot;cuda&quot;)) print(f&quot;Model output: {torch_out.detach().cpu().size()}&quot;) . Model input: torch.Size([128, 3, 32, 32]) Model output: torch.Size([128, 10]) . Convert model to ONNX - standard torch approach . Inspired by: https://pytorch.org/tutorials/advanced/super_resolution_with_onnxruntime.html . We export the PyTorch Lightning model similarly as we would do with a normal torch model . ## a necessary fix, applicable only for Efficientnet model.model.set_swish(memory_efficient=False) . # # Export the model torch.onnx.export(model, # model being run ##since model is in the cuda mode, input also need to be X.to(&quot;cuda&quot;), # model input (or a tuple for multiple inputs) &quot;model_troch_export.onnx&quot;, # where to save the model (can be a file or file-like object) export_params=True, # store the trained parameter weights inside the model file opset_version=10, # the ONNX version to export the model to do_constant_folding=True, # whether to execute constant folding for optimization input_names = [&#39;input&#39;], # the model&#39;s input names output_names = [&#39;output&#39;], # the model&#39;s output names dynamic_axes={&#39;input&#39; : {0 : &#39;batch_size&#39;}, # variable lenght axes &#39;output&#39; : {0 : &#39;batch_size&#39;}}) . ls . data/ logs/ sample_data/ &#39;epoch=9.ckpt&#39; model_lightnining_export.onnx &#39;epoch=9_v0.ckpt&#39; model_troch_export.onnx . Convert model to ONNX - standard torch approach . PyTorch Lightning has its own method for exporting the model. The arguments are similar as in torch.onnx.export method . ## a necessary fix, applicable only for Efficientnet model.model.set_swish(memory_efficient=False) . model.to_onnx(&quot;model_lightnining_export.onnx&quot;, X.to(&quot;cuda&quot;), export_params=True, input_names = [&#39;input&#39;], output_names = [&#39;output&#39;], dynamic_axes={&#39;input&#39; : {0 : &#39;batch_size&#39;},&#39;output&#39; : {0 : &#39;batch_size&#39;}}) . ls . data/ logs/ sample_data/ &#39;epoch=9.ckpt&#39; model_lightnining_export.onnx &#39;epoch=9_v0.ckpt&#39; model_troch_export.onnx . Do the prediction with ONNX . import onnx onnx_model = onnx.load(&quot;model_lightnining_export.onnx&quot;) onnx.checker.check_model(onnx_model) onnx.helper.printable_graph(onnx_model.graph) . &#34;graph torch-jit-export ( n %input[FLOAT, batch_sizex3x32x32] n) initializers ( n %model._blocks.0._bn1.bias[FLOAT, 32] n %model._blocks.0._bn1.running_mean[FLOAT, 32] n %model._blocks.0._bn1.running_var[FLOAT, 32] n %model._blocks.0._bn1.weight[FLOAT, 32] n %model._blocks.0._bn2.bias[FLOAT, 16] n %model._blocks.0._bn2.running_mean[FLOAT, 16] n %model._blocks.0._bn2.running_var[FLOAT, 16] n %model._blocks.0._bn2.weight[FLOAT, 16] n %model._blocks.0._depthwise_conv.weight[FLOAT, 32x1x3x3] n %model._blocks.0._project_conv.weight[FLOAT, 16x32x1x1] n %model._blocks.0._se_expand.bias[FLOAT, 32] n %model._blocks.0._se_expand.weight[FLOAT, 32x8x1x1] n %model._blocks.0._se_reduce.bias[FLOAT, 8] n %model._blocks.0._se_reduce.weight[FLOAT, 8x32x1x1] n %model._blocks.1._bn1.bias[FLOAT, 16] n %model._blocks.1._bn1.running_mean[FLOAT, 16] n %model._blocks.1._bn1.running_var[FLOAT, 16] n %model._blocks.1._bn1.weight[FLOAT, 16] n %model._blocks.1._bn2.bias[FLOAT, 16] n %model._blocks.1._bn2.running_mean[FLOAT, 16] n %model._blocks.1._bn2.running_var[FLOAT, 16] n %model._blocks.1._bn2.weight[FLOAT, 16] n %model._blocks.1._depthwise_conv.weight[FLOAT, 16x1x3x3] n %model._blocks.1._project_conv.weight[FLOAT, 16x16x1x1] n %model._blocks.1._se_expand.bias[FLOAT, 16] n %model._blocks.1._se_expand.weight[FLOAT, 16x4x1x1] n %model._blocks.1._se_reduce.bias[FLOAT, 4] n %model._blocks.1._se_reduce.weight[FLOAT, 4x16x1x1] n %model._blocks.10._bn0.bias[FLOAT, 480] n %model._blocks.10._bn0.running_mean[FLOAT, 480] n %model._blocks.10._bn0.running_var[FLOAT, 480] n %model._blocks.10._bn0.weight[FLOAT, 480] n %model._blocks.10._bn1.bias[FLOAT, 480] n %model._blocks.10._bn1.running_mean[FLOAT, 480] n %model._blocks.10._bn1.running_var[FLOAT, 480] n %model._blocks.10._bn1.weight[FLOAT, 480] n %model._blocks.10._bn2.bias[FLOAT, 80] n %model._blocks.10._bn2.running_mean[FLOAT, 80] n %model._blocks.10._bn2.running_var[FLOAT, 80] n %model._blocks.10._bn2.weight[FLOAT, 80] n %model._blocks.10._depthwise_conv.weight[FLOAT, 480x1x3x3] n %model._blocks.10._expand_conv.weight[FLOAT, 480x80x1x1] n %model._blocks.10._project_conv.weight[FLOAT, 80x480x1x1] n %model._blocks.10._se_expand.bias[FLOAT, 480] n %model._blocks.10._se_expand.weight[FLOAT, 480x20x1x1] n %model._blocks.10._se_reduce.bias[FLOAT, 20] n %model._blocks.10._se_reduce.weight[FLOAT, 20x480x1x1] n %model._blocks.11._bn0.bias[FLOAT, 480] n %model._blocks.11._bn0.running_mean[FLOAT, 480] n %model._blocks.11._bn0.running_var[FLOAT, 480] n %model._blocks.11._bn0.weight[FLOAT, 480] n %model._blocks.11._bn1.bias[FLOAT, 480] n %model._blocks.11._bn1.running_mean[FLOAT, 480] n %model._blocks.11._bn1.running_var[FLOAT, 480] n %model._blocks.11._bn1.weight[FLOAT, 480] n %model._blocks.11._bn2.bias[FLOAT, 80] n %model._blocks.11._bn2.running_mean[FLOAT, 80] n %model._blocks.11._bn2.running_var[FLOAT, 80] n %model._blocks.11._bn2.weight[FLOAT, 80] n %model._blocks.11._depthwise_conv.weight[FLOAT, 480x1x3x3] n %model._blocks.11._expand_conv.weight[FLOAT, 480x80x1x1] n %model._blocks.11._project_conv.weight[FLOAT, 80x480x1x1] n %model._blocks.11._se_expand.bias[FLOAT, 480] n %model._blocks.11._se_expand.weight[FLOAT, 480x20x1x1] n %model._blocks.11._se_reduce.bias[FLOAT, 20] n %model._blocks.11._se_reduce.weight[FLOAT, 20x480x1x1] n %model._blocks.12._bn0.bias[FLOAT, 480] n %model._blocks.12._bn0.running_mean[FLOAT, 480] n %model._blocks.12._bn0.running_var[FLOAT, 480] n %model._blocks.12._bn0.weight[FLOAT, 480] n %model._blocks.12._bn1.bias[FLOAT, 480] n %model._blocks.12._bn1.running_mean[FLOAT, 480] n %model._blocks.12._bn1.running_var[FLOAT, 480] n %model._blocks.12._bn1.weight[FLOAT, 480] n %model._blocks.12._bn2.bias[FLOAT, 112] n %model._blocks.12._bn2.running_mean[FLOAT, 112] n %model._blocks.12._bn2.running_var[FLOAT, 112] n %model._blocks.12._bn2.weight[FLOAT, 112] n %model._blocks.12._depthwise_conv.weight[FLOAT, 480x1x5x5] n %model._blocks.12._expand_conv.weight[FLOAT, 480x80x1x1] n %model._blocks.12._project_conv.weight[FLOAT, 112x480x1x1] n %model._blocks.12._se_expand.bias[FLOAT, 480] n %model._blocks.12._se_expand.weight[FLOAT, 480x20x1x1] n %model._blocks.12._se_reduce.bias[FLOAT, 20] n %model._blocks.12._se_reduce.weight[FLOAT, 20x480x1x1] n %model._blocks.13._bn0.bias[FLOAT, 672] n %model._blocks.13._bn0.running_mean[FLOAT, 672] n %model._blocks.13._bn0.running_var[FLOAT, 672] n %model._blocks.13._bn0.weight[FLOAT, 672] n %model._blocks.13._bn1.bias[FLOAT, 672] n %model._blocks.13._bn1.running_mean[FLOAT, 672] n %model._blocks.13._bn1.running_var[FLOAT, 672] n %model._blocks.13._bn1.weight[FLOAT, 672] n %model._blocks.13._bn2.bias[FLOAT, 112] n %model._blocks.13._bn2.running_mean[FLOAT, 112] n %model._blocks.13._bn2.running_var[FLOAT, 112] n %model._blocks.13._bn2.weight[FLOAT, 112] n %model._blocks.13._depthwise_conv.weight[FLOAT, 672x1x5x5] n %model._blocks.13._expand_conv.weight[FLOAT, 672x112x1x1] n %model._blocks.13._project_conv.weight[FLOAT, 112x672x1x1] n %model._blocks.13._se_expand.bias[FLOAT, 672] n %model._blocks.13._se_expand.weight[FLOAT, 672x28x1x1] n %model._blocks.13._se_reduce.bias[FLOAT, 28] n %model._blocks.13._se_reduce.weight[FLOAT, 28x672x1x1] n %model._blocks.14._bn0.bias[FLOAT, 672] n %model._blocks.14._bn0.running_mean[FLOAT, 672] n %model._blocks.14._bn0.running_var[FLOAT, 672] n %model._blocks.14._bn0.weight[FLOAT, 672] n %model._blocks.14._bn1.bias[FLOAT, 672] n %model._blocks.14._bn1.running_mean[FLOAT, 672] n %model._blocks.14._bn1.running_var[FLOAT, 672] n %model._blocks.14._bn1.weight[FLOAT, 672] n %model._blocks.14._bn2.bias[FLOAT, 112] n %model._blocks.14._bn2.running_mean[FLOAT, 112] n %model._blocks.14._bn2.running_var[FLOAT, 112] n %model._blocks.14._bn2.weight[FLOAT, 112] n %model._blocks.14._depthwise_conv.weight[FLOAT, 672x1x5x5] n %model._blocks.14._expand_conv.weight[FLOAT, 672x112x1x1] n %model._blocks.14._project_conv.weight[FLOAT, 112x672x1x1] n %model._blocks.14._se_expand.bias[FLOAT, 672] n %model._blocks.14._se_expand.weight[FLOAT, 672x28x1x1] n %model._blocks.14._se_reduce.bias[FLOAT, 28] n %model._blocks.14._se_reduce.weight[FLOAT, 28x672x1x1] n %model._blocks.15._bn0.bias[FLOAT, 672] n %model._blocks.15._bn0.running_mean[FLOAT, 672] n %model._blocks.15._bn0.running_var[FLOAT, 672] n %model._blocks.15._bn0.weight[FLOAT, 672] n %model._blocks.15._bn1.bias[FLOAT, 672] n %model._blocks.15._bn1.running_mean[FLOAT, 672] n %model._blocks.15._bn1.running_var[FLOAT, 672] n %model._blocks.15._bn1.weight[FLOAT, 672] n %model._blocks.15._bn2.bias[FLOAT, 112] n %model._blocks.15._bn2.running_mean[FLOAT, 112] n %model._blocks.15._bn2.running_var[FLOAT, 112] n %model._blocks.15._bn2.weight[FLOAT, 112] n %model._blocks.15._depthwise_conv.weight[FLOAT, 672x1x5x5] n %model._blocks.15._expand_conv.weight[FLOAT, 672x112x1x1] n %model._blocks.15._project_conv.weight[FLOAT, 112x672x1x1] n %model._blocks.15._se_expand.bias[FLOAT, 672] n %model._blocks.15._se_expand.weight[FLOAT, 672x28x1x1] n %model._blocks.15._se_reduce.bias[FLOAT, 28] n %model._blocks.15._se_reduce.weight[FLOAT, 28x672x1x1] n %model._blocks.16._bn0.bias[FLOAT, 672] n %model._blocks.16._bn0.running_mean[FLOAT, 672] n %model._blocks.16._bn0.running_var[FLOAT, 672] n %model._blocks.16._bn0.weight[FLOAT, 672] n %model._blocks.16._bn1.bias[FLOAT, 672] n %model._blocks.16._bn1.running_mean[FLOAT, 672] n %model._blocks.16._bn1.running_var[FLOAT, 672] n %model._blocks.16._bn1.weight[FLOAT, 672] n %model._blocks.16._bn2.bias[FLOAT, 192] n %model._blocks.16._bn2.running_mean[FLOAT, 192] n %model._blocks.16._bn2.running_var[FLOAT, 192] n %model._blocks.16._bn2.weight[FLOAT, 192] n %model._blocks.16._depthwise_conv.weight[FLOAT, 672x1x5x5] n %model._blocks.16._expand_conv.weight[FLOAT, 672x112x1x1] n %model._blocks.16._project_conv.weight[FLOAT, 192x672x1x1] n %model._blocks.16._se_expand.bias[FLOAT, 672] n %model._blocks.16._se_expand.weight[FLOAT, 672x28x1x1] n %model._blocks.16._se_reduce.bias[FLOAT, 28] n %model._blocks.16._se_reduce.weight[FLOAT, 28x672x1x1] n %model._blocks.17._bn0.bias[FLOAT, 1152] n %model._blocks.17._bn0.running_mean[FLOAT, 1152] n %model._blocks.17._bn0.running_var[FLOAT, 1152] n %model._blocks.17._bn0.weight[FLOAT, 1152] n %model._blocks.17._bn1.bias[FLOAT, 1152] n %model._blocks.17._bn1.running_mean[FLOAT, 1152] n %model._blocks.17._bn1.running_var[FLOAT, 1152] n %model._blocks.17._bn1.weight[FLOAT, 1152] n %model._blocks.17._bn2.bias[FLOAT, 192] n %model._blocks.17._bn2.running_mean[FLOAT, 192] n %model._blocks.17._bn2.running_var[FLOAT, 192] n %model._blocks.17._bn2.weight[FLOAT, 192] n %model._blocks.17._depthwise_conv.weight[FLOAT, 1152x1x5x5] n %model._blocks.17._expand_conv.weight[FLOAT, 1152x192x1x1] n %model._blocks.17._project_conv.weight[FLOAT, 192x1152x1x1] n %model._blocks.17._se_expand.bias[FLOAT, 1152] n %model._blocks.17._se_expand.weight[FLOAT, 1152x48x1x1] n %model._blocks.17._se_reduce.bias[FLOAT, 48] n %model._blocks.17._se_reduce.weight[FLOAT, 48x1152x1x1] n %model._blocks.18._bn0.bias[FLOAT, 1152] n %model._blocks.18._bn0.running_mean[FLOAT, 1152] n %model._blocks.18._bn0.running_var[FLOAT, 1152] n %model._blocks.18._bn0.weight[FLOAT, 1152] n %model._blocks.18._bn1.bias[FLOAT, 1152] n %model._blocks.18._bn1.running_mean[FLOAT, 1152] n %model._blocks.18._bn1.running_var[FLOAT, 1152] n %model._blocks.18._bn1.weight[FLOAT, 1152] n %model._blocks.18._bn2.bias[FLOAT, 192] n %model._blocks.18._bn2.running_mean[FLOAT, 192] n %model._blocks.18._bn2.running_var[FLOAT, 192] n %model._blocks.18._bn2.weight[FLOAT, 192] n %model._blocks.18._depthwise_conv.weight[FLOAT, 1152x1x5x5] n %model._blocks.18._expand_conv.weight[FLOAT, 1152x192x1x1] n %model._blocks.18._project_conv.weight[FLOAT, 192x1152x1x1] n %model._blocks.18._se_expand.bias[FLOAT, 1152] n %model._blocks.18._se_expand.weight[FLOAT, 1152x48x1x1] n %model._blocks.18._se_reduce.bias[FLOAT, 48] n %model._blocks.18._se_reduce.weight[FLOAT, 48x1152x1x1] n %model._blocks.19._bn0.bias[FLOAT, 1152] n %model._blocks.19._bn0.running_mean[FLOAT, 1152] n %model._blocks.19._bn0.running_var[FLOAT, 1152] n %model._blocks.19._bn0.weight[FLOAT, 1152] n %model._blocks.19._bn1.bias[FLOAT, 1152] n %model._blocks.19._bn1.running_mean[FLOAT, 1152] n %model._blocks.19._bn1.running_var[FLOAT, 1152] n %model._blocks.19._bn1.weight[FLOAT, 1152] n %model._blocks.19._bn2.bias[FLOAT, 192] n %model._blocks.19._bn2.running_mean[FLOAT, 192] n %model._blocks.19._bn2.running_var[FLOAT, 192] n %model._blocks.19._bn2.weight[FLOAT, 192] n %model._blocks.19._depthwise_conv.weight[FLOAT, 1152x1x5x5] n %model._blocks.19._expand_conv.weight[FLOAT, 1152x192x1x1] n %model._blocks.19._project_conv.weight[FLOAT, 192x1152x1x1] n %model._blocks.19._se_expand.bias[FLOAT, 1152] n %model._blocks.19._se_expand.weight[FLOAT, 1152x48x1x1] n %model._blocks.19._se_reduce.bias[FLOAT, 48] n %model._blocks.19._se_reduce.weight[FLOAT, 48x1152x1x1] n %model._blocks.2._bn0.bias[FLOAT, 96] n %model._blocks.2._bn0.running_mean[FLOAT, 96] n %model._blocks.2._bn0.running_var[FLOAT, 96] n %model._blocks.2._bn0.weight[FLOAT, 96] n %model._blocks.2._bn1.bias[FLOAT, 96] n %model._blocks.2._bn1.running_mean[FLOAT, 96] n %model._blocks.2._bn1.running_var[FLOAT, 96] n %model._blocks.2._bn1.weight[FLOAT, 96] n %model._blocks.2._bn2.bias[FLOAT, 24] n %model._blocks.2._bn2.running_mean[FLOAT, 24] n %model._blocks.2._bn2.running_var[FLOAT, 24] n %model._blocks.2._bn2.weight[FLOAT, 24] n %model._blocks.2._depthwise_conv.weight[FLOAT, 96x1x3x3] n %model._blocks.2._expand_conv.weight[FLOAT, 96x16x1x1] n %model._blocks.2._project_conv.weight[FLOAT, 24x96x1x1] n %model._blocks.2._se_expand.bias[FLOAT, 96] n %model._blocks.2._se_expand.weight[FLOAT, 96x4x1x1] n %model._blocks.2._se_reduce.bias[FLOAT, 4] n %model._blocks.2._se_reduce.weight[FLOAT, 4x96x1x1] n %model._blocks.20._bn0.bias[FLOAT, 1152] n %model._blocks.20._bn0.running_mean[FLOAT, 1152] n %model._blocks.20._bn0.running_var[FLOAT, 1152] n %model._blocks.20._bn0.weight[FLOAT, 1152] n %model._blocks.20._bn1.bias[FLOAT, 1152] n %model._blocks.20._bn1.running_mean[FLOAT, 1152] n %model._blocks.20._bn1.running_var[FLOAT, 1152] n %model._blocks.20._bn1.weight[FLOAT, 1152] n %model._blocks.20._bn2.bias[FLOAT, 192] n %model._blocks.20._bn2.running_mean[FLOAT, 192] n %model._blocks.20._bn2.running_var[FLOAT, 192] n %model._blocks.20._bn2.weight[FLOAT, 192] n %model._blocks.20._depthwise_conv.weight[FLOAT, 1152x1x5x5] n %model._blocks.20._expand_conv.weight[FLOAT, 1152x192x1x1] n %model._blocks.20._project_conv.weight[FLOAT, 192x1152x1x1] n %model._blocks.20._se_expand.bias[FLOAT, 1152] n %model._blocks.20._se_expand.weight[FLOAT, 1152x48x1x1] n %model._blocks.20._se_reduce.bias[FLOAT, 48] n %model._blocks.20._se_reduce.weight[FLOAT, 48x1152x1x1] n %model._blocks.21._bn0.bias[FLOAT, 1152] n %model._blocks.21._bn0.running_mean[FLOAT, 1152] n %model._blocks.21._bn0.running_var[FLOAT, 1152] n %model._blocks.21._bn0.weight[FLOAT, 1152] n %model._blocks.21._bn1.bias[FLOAT, 1152] n %model._blocks.21._bn1.running_mean[FLOAT, 1152] n %model._blocks.21._bn1.running_var[FLOAT, 1152] n %model._blocks.21._bn1.weight[FLOAT, 1152] n %model._blocks.21._bn2.bias[FLOAT, 320] n %model._blocks.21._bn2.running_mean[FLOAT, 320] n %model._blocks.21._bn2.running_var[FLOAT, 320] n %model._blocks.21._bn2.weight[FLOAT, 320] n %model._blocks.21._depthwise_conv.weight[FLOAT, 1152x1x3x3] n %model._blocks.21._expand_conv.weight[FLOAT, 1152x192x1x1] n %model._blocks.21._project_conv.weight[FLOAT, 320x1152x1x1] n %model._blocks.21._se_expand.bias[FLOAT, 1152] n %model._blocks.21._se_expand.weight[FLOAT, 1152x48x1x1] n %model._blocks.21._se_reduce.bias[FLOAT, 48] n %model._blocks.21._se_reduce.weight[FLOAT, 48x1152x1x1] n %model._blocks.22._bn0.bias[FLOAT, 1920] n %model._blocks.22._bn0.running_mean[FLOAT, 1920] n %model._blocks.22._bn0.running_var[FLOAT, 1920] n %model._blocks.22._bn0.weight[FLOAT, 1920] n %model._blocks.22._bn1.bias[FLOAT, 1920] n %model._blocks.22._bn1.running_mean[FLOAT, 1920] n %model._blocks.22._bn1.running_var[FLOAT, 1920] n %model._blocks.22._bn1.weight[FLOAT, 1920] n %model._blocks.22._bn2.bias[FLOAT, 320] n %model._blocks.22._bn2.running_mean[FLOAT, 320] n %model._blocks.22._bn2.running_var[FLOAT, 320] n %model._blocks.22._bn2.weight[FLOAT, 320] n %model._blocks.22._depthwise_conv.weight[FLOAT, 1920x1x3x3] n %model._blocks.22._expand_conv.weight[FLOAT, 1920x320x1x1] n %model._blocks.22._project_conv.weight[FLOAT, 320x1920x1x1] n %model._blocks.22._se_expand.bias[FLOAT, 1920] n %model._blocks.22._se_expand.weight[FLOAT, 1920x80x1x1] n %model._blocks.22._se_reduce.bias[FLOAT, 80] n %model._blocks.22._se_reduce.weight[FLOAT, 80x1920x1x1] n %model._blocks.3._bn0.bias[FLOAT, 144] n %model._blocks.3._bn0.running_mean[FLOAT, 144] n %model._blocks.3._bn0.running_var[FLOAT, 144] n %model._blocks.3._bn0.weight[FLOAT, 144] n %model._blocks.3._bn1.bias[FLOAT, 144] n %model._blocks.3._bn1.running_mean[FLOAT, 144] n %model._blocks.3._bn1.running_var[FLOAT, 144] n %model._blocks.3._bn1.weight[FLOAT, 144] n %model._blocks.3._bn2.bias[FLOAT, 24] n %model._blocks.3._bn2.running_mean[FLOAT, 24] n %model._blocks.3._bn2.running_var[FLOAT, 24] n %model._blocks.3._bn2.weight[FLOAT, 24] n %model._blocks.3._depthwise_conv.weight[FLOAT, 144x1x3x3] n %model._blocks.3._expand_conv.weight[FLOAT, 144x24x1x1] n %model._blocks.3._project_conv.weight[FLOAT, 24x144x1x1] n %model._blocks.3._se_expand.bias[FLOAT, 144] n %model._blocks.3._se_expand.weight[FLOAT, 144x6x1x1] n %model._blocks.3._se_reduce.bias[FLOAT, 6] n %model._blocks.3._se_reduce.weight[FLOAT, 6x144x1x1] n %model._blocks.4._bn0.bias[FLOAT, 144] n %model._blocks.4._bn0.running_mean[FLOAT, 144] n %model._blocks.4._bn0.running_var[FLOAT, 144] n %model._blocks.4._bn0.weight[FLOAT, 144] n %model._blocks.4._bn1.bias[FLOAT, 144] n %model._blocks.4._bn1.running_mean[FLOAT, 144] n %model._blocks.4._bn1.running_var[FLOAT, 144] n %model._blocks.4._bn1.weight[FLOAT, 144] n %model._blocks.4._bn2.bias[FLOAT, 24] n %model._blocks.4._bn2.running_mean[FLOAT, 24] n %model._blocks.4._bn2.running_var[FLOAT, 24] n %model._blocks.4._bn2.weight[FLOAT, 24] n %model._blocks.4._depthwise_conv.weight[FLOAT, 144x1x3x3] n %model._blocks.4._expand_conv.weight[FLOAT, 144x24x1x1] n %model._blocks.4._project_conv.weight[FLOAT, 24x144x1x1] n %model._blocks.4._se_expand.bias[FLOAT, 144] n %model._blocks.4._se_expand.weight[FLOAT, 144x6x1x1] n %model._blocks.4._se_reduce.bias[FLOAT, 6] n %model._blocks.4._se_reduce.weight[FLOAT, 6x144x1x1] n %model._blocks.5._bn0.bias[FLOAT, 144] n %model._blocks.5._bn0.running_mean[FLOAT, 144] n %model._blocks.5._bn0.running_var[FLOAT, 144] n %model._blocks.5._bn0.weight[FLOAT, 144] n %model._blocks.5._bn1.bias[FLOAT, 144] n %model._blocks.5._bn1.running_mean[FLOAT, 144] n %model._blocks.5._bn1.running_var[FLOAT, 144] n %model._blocks.5._bn1.weight[FLOAT, 144] n %model._blocks.5._bn2.bias[FLOAT, 40] n %model._blocks.5._bn2.running_mean[FLOAT, 40] n %model._blocks.5._bn2.running_var[FLOAT, 40] n %model._blocks.5._bn2.weight[FLOAT, 40] n %model._blocks.5._depthwise_conv.weight[FLOAT, 144x1x5x5] n %model._blocks.5._expand_conv.weight[FLOAT, 144x24x1x1] n %model._blocks.5._project_conv.weight[FLOAT, 40x144x1x1] n %model._blocks.5._se_expand.bias[FLOAT, 144] n %model._blocks.5._se_expand.weight[FLOAT, 144x6x1x1] n %model._blocks.5._se_reduce.bias[FLOAT, 6] n %model._blocks.5._se_reduce.weight[FLOAT, 6x144x1x1] n %model._blocks.6._bn0.bias[FLOAT, 240] n %model._blocks.6._bn0.running_mean[FLOAT, 240] n %model._blocks.6._bn0.running_var[FLOAT, 240] n %model._blocks.6._bn0.weight[FLOAT, 240] n %model._blocks.6._bn1.bias[FLOAT, 240] n %model._blocks.6._bn1.running_mean[FLOAT, 240] n %model._blocks.6._bn1.running_var[FLOAT, 240] n %model._blocks.6._bn1.weight[FLOAT, 240] n %model._blocks.6._bn2.bias[FLOAT, 40] n %model._blocks.6._bn2.running_mean[FLOAT, 40] n %model._blocks.6._bn2.running_var[FLOAT, 40] n %model._blocks.6._bn2.weight[FLOAT, 40] n %model._blocks.6._depthwise_conv.weight[FLOAT, 240x1x5x5] n %model._blocks.6._expand_conv.weight[FLOAT, 240x40x1x1] n %model._blocks.6._project_conv.weight[FLOAT, 40x240x1x1] n %model._blocks.6._se_expand.bias[FLOAT, 240] n %model._blocks.6._se_expand.weight[FLOAT, 240x10x1x1] n %model._blocks.6._se_reduce.bias[FLOAT, 10] n %model._blocks.6._se_reduce.weight[FLOAT, 10x240x1x1] n %model._blocks.7._bn0.bias[FLOAT, 240] n %model._blocks.7._bn0.running_mean[FLOAT, 240] n %model._blocks.7._bn0.running_var[FLOAT, 240] n %model._blocks.7._bn0.weight[FLOAT, 240] n %model._blocks.7._bn1.bias[FLOAT, 240] n %model._blocks.7._bn1.running_mean[FLOAT, 240] n %model._blocks.7._bn1.running_var[FLOAT, 240] n %model._blocks.7._bn1.weight[FLOAT, 240] n %model._blocks.7._bn2.bias[FLOAT, 40] n %model._blocks.7._bn2.running_mean[FLOAT, 40] n %model._blocks.7._bn2.running_var[FLOAT, 40] n %model._blocks.7._bn2.weight[FLOAT, 40] n %model._blocks.7._depthwise_conv.weight[FLOAT, 240x1x5x5] n %model._blocks.7._expand_conv.weight[FLOAT, 240x40x1x1] n %model._blocks.7._project_conv.weight[FLOAT, 40x240x1x1] n %model._blocks.7._se_expand.bias[FLOAT, 240] n %model._blocks.7._se_expand.weight[FLOAT, 240x10x1x1] n %model._blocks.7._se_reduce.bias[FLOAT, 10] n %model._blocks.7._se_reduce.weight[FLOAT, 10x240x1x1] n %model._blocks.8._bn0.bias[FLOAT, 240] n %model._blocks.8._bn0.running_mean[FLOAT, 240] n %model._blocks.8._bn0.running_var[FLOAT, 240] n %model._blocks.8._bn0.weight[FLOAT, 240] n %model._blocks.8._bn1.bias[FLOAT, 240] n %model._blocks.8._bn1.running_mean[FLOAT, 240] n %model._blocks.8._bn1.running_var[FLOAT, 240] n %model._blocks.8._bn1.weight[FLOAT, 240] n %model._blocks.8._bn2.bias[FLOAT, 80] n %model._blocks.8._bn2.running_mean[FLOAT, 80] n %model._blocks.8._bn2.running_var[FLOAT, 80] n %model._blocks.8._bn2.weight[FLOAT, 80] n %model._blocks.8._depthwise_conv.weight[FLOAT, 240x1x3x3] n %model._blocks.8._expand_conv.weight[FLOAT, 240x40x1x1] n %model._blocks.8._project_conv.weight[FLOAT, 80x240x1x1] n %model._blocks.8._se_expand.bias[FLOAT, 240] n %model._blocks.8._se_expand.weight[FLOAT, 240x10x1x1] n %model._blocks.8._se_reduce.bias[FLOAT, 10] n %model._blocks.8._se_reduce.weight[FLOAT, 10x240x1x1] n %model._blocks.9._bn0.bias[FLOAT, 480] n %model._blocks.9._bn0.running_mean[FLOAT, 480] n %model._blocks.9._bn0.running_var[FLOAT, 480] n %model._blocks.9._bn0.weight[FLOAT, 480] n %model._blocks.9._bn1.bias[FLOAT, 480] n %model._blocks.9._bn1.running_mean[FLOAT, 480] n %model._blocks.9._bn1.running_var[FLOAT, 480] n %model._blocks.9._bn1.weight[FLOAT, 480] n %model._blocks.9._bn2.bias[FLOAT, 80] n %model._blocks.9._bn2.running_mean[FLOAT, 80] n %model._blocks.9._bn2.running_var[FLOAT, 80] n %model._blocks.9._bn2.weight[FLOAT, 80] n %model._blocks.9._depthwise_conv.weight[FLOAT, 480x1x3x3] n %model._blocks.9._expand_conv.weight[FLOAT, 480x80x1x1] n %model._blocks.9._project_conv.weight[FLOAT, 80x480x1x1] n %model._blocks.9._se_expand.bias[FLOAT, 480] n %model._blocks.9._se_expand.weight[FLOAT, 480x20x1x1] n %model._blocks.9._se_reduce.bias[FLOAT, 20] n %model._blocks.9._se_reduce.weight[FLOAT, 20x480x1x1] n %model._bn0.bias[FLOAT, 32] n %model._bn0.running_mean[FLOAT, 32] n %model._bn0.running_var[FLOAT, 32] n %model._bn0.weight[FLOAT, 32] n %model._bn1.bias[FLOAT, 1280] n %model._bn1.running_mean[FLOAT, 1280] n %model._bn1.running_var[FLOAT, 1280] n %model._bn1.weight[FLOAT, 1280] n %model._conv_head.weight[FLOAT, 1280x320x1x1] n %model._conv_stem.weight[FLOAT, 32x3x3x3] n %model._fc.bias[FLOAT, 10] n %model._fc.weight[FLOAT, 10x1280] n) { n %509 = Pad[mode = &#39;constant&#39;, pads = [0, 0, 1, 1, 0, 0, 1, 1], value = 0](%input) n %510 = Conv[dilations = [1, 1], group = 1, kernel_shape = [3, 3], pads = [0, 0, 0, 0], strides = [2, 2]](%509, %model._conv_stem.weight) n %511 = BatchNormalization[epsilon = 0.00100000004749745, momentum = 0.990000009536743](%510, %model._bn0.weight, %model._bn0.bias, %model._bn0.running_mean, %model._bn0.running_var) n %512 = Sigmoid(%511) n %513 = Mul(%511, %512) n %514 = Pad[mode = &#39;constant&#39;, pads = [0, 0, 1, 1, 0, 0, 1, 1], value = 0](%513) n %515 = Conv[dilations = [1, 1], group = 32, kernel_shape = [3, 3], pads = [0, 0, 0, 0], strides = [1, 1]](%514, %model._blocks.0._depthwise_conv.weight) n %516 = BatchNormalization[epsilon = 0.00100000004749745, momentum = 0.990000009536743](%515, %model._blocks.0._bn1.weight, %model._blocks.0._bn1.bias, %model._blocks.0._bn1.running_mean, %model._blocks.0._bn1.running_var) n %517 = Sigmoid(%516) n %518 = Mul(%516, %517) n %519 = GlobalAveragePool(%518) n %520 = Conv[dilations = [1, 1], group = 1, kernel_shape = [1, 1], pads = [0, 0, 0, 0], strides = [1, 1]](%519, %model._blocks.0._se_reduce.weight, %model._blocks.0._se_reduce.bias) n %521 = Sigmoid(%520) n %522 = Mul(%520, %521) n %523 = Conv[dilations = [1, 1], group = 1, kernel_shape = [1, 1], pads = [0, 0, 0, 0], strides = [1, 1]](%522, %model._blocks.0._se_expand.weight, %model._blocks.0._se_expand.bias) n %524 = Sigmoid(%523) n %525 = Mul(%524, %518) n %526 = Conv[dilations = [1, 1], group = 1, kernel_shape = [1, 1], pads = [0, 0, 0, 0], strides = [1, 1]](%525, %model._blocks.0._project_conv.weight) n %527 = BatchNormalization[epsilon = 0.00100000004749745, momentum = 0.990000009536743](%526, %model._blocks.0._bn2.weight, %model._blocks.0._bn2.bias, %model._blocks.0._bn2.running_mean, %model._blocks.0._bn2.running_var) n %528 = Pad[mode = &#39;constant&#39;, pads = [0, 0, 1, 1, 0, 0, 1, 1], value = 0](%527) n %529 = Conv[dilations = [1, 1], group = 16, kernel_shape = [3, 3], pads = [0, 0, 0, 0], strides = [1, 1]](%528, %model._blocks.1._depthwise_conv.weight) n %530 = BatchNormalization[epsilon = 0.00100000004749745, momentum = 0.990000009536743](%529, %model._blocks.1._bn1.weight, %model._blocks.1._bn1.bias, %model._blocks.1._bn1.running_mean, %model._blocks.1._bn1.running_var) n %531 = Sigmoid(%530) n %532 = Mul(%530, %531) n %533 = GlobalAveragePool(%532) n %534 = Conv[dilations = [1, 1], group = 1, kernel_shape = [1, 1], pads = [0, 0, 0, 0], strides = [1, 1]](%533, %model._blocks.1._se_reduce.weight, %model._blocks.1._se_reduce.bias) n %535 = Sigmoid(%534) n %536 = Mul(%534, %535) n %537 = Conv[dilations = [1, 1], group = 1, kernel_shape = [1, 1], pads = [0, 0, 0, 0], strides = [1, 1]](%536, %model._blocks.1._se_expand.weight, %model._blocks.1._se_expand.bias) n %538 = Sigmoid(%537) n %539 = Mul(%538, %532) n %540 = Conv[dilations = [1, 1], group = 1, kernel_shape = [1, 1], pads = [0, 0, 0, 0], strides = [1, 1]](%539, %model._blocks.1._project_conv.weight) n %541 = BatchNormalization[epsilon = 0.00100000004749745, momentum = 0.990000009536743](%540, %model._blocks.1._bn2.weight, %model._blocks.1._bn2.bias, %model._blocks.1._bn2.running_mean, %model._blocks.1._bn2.running_var) n %542 = Add(%541, %527) n %543 = Conv[dilations = [1, 1], group = 1, kernel_shape = [1, 1], pads = [0, 0, 0, 0], strides = [1, 1]](%542, %model._blocks.2._expand_conv.weight) n %544 = BatchNormalization[epsilon = 0.00100000004749745, momentum = 0.990000009536743](%543, %model._blocks.2._bn0.weight, %model._blocks.2._bn0.bias, %model._blocks.2._bn0.running_mean, %model._blocks.2._bn0.running_var) n %545 = Sigmoid(%544) n %546 = Mul(%544, %545) n %547 = Pad[mode = &#39;constant&#39;, pads = [0, 0, 1, 1, 0, 0, 1, 1], value = 0](%546) n %548 = Conv[dilations = [1, 1], group = 96, kernel_shape = [3, 3], pads = [0, 0, 0, 0], strides = [2, 2]](%547, %model._blocks.2._depthwise_conv.weight) n %549 = BatchNormalization[epsilon = 0.00100000004749745, momentum = 0.990000009536743](%548, %model._blocks.2._bn1.weight, %model._blocks.2._bn1.bias, %model._blocks.2._bn1.running_mean, %model._blocks.2._bn1.running_var) n %550 = Sigmoid(%549) n %551 = Mul(%549, %550) n %552 = GlobalAveragePool(%551) n %553 = Conv[dilations = [1, 1], group = 1, kernel_shape = [1, 1], pads = [0, 0, 0, 0], strides = [1, 1]](%552, %model._blocks.2._se_reduce.weight, %model._blocks.2._se_reduce.bias) n %554 = Sigmoid(%553) n %555 = Mul(%553, %554) n %556 = Conv[dilations = [1, 1], group = 1, kernel_shape = [1, 1], pads = [0, 0, 0, 0], strides = [1, 1]](%555, %model._blocks.2._se_expand.weight, %model._blocks.2._se_expand.bias) n %557 = Sigmoid(%556) n %558 = Mul(%557, %551) n %559 = Conv[dilations = [1, 1], group = 1, kernel_shape = [1, 1], pads = [0, 0, 0, 0], strides = [1, 1]](%558, %model._blocks.2._project_conv.weight) n %560 = BatchNormalization[epsilon = 0.00100000004749745, momentum = 0.990000009536743](%559, %model._blocks.2._bn2.weight, %model._blocks.2._bn2.bias, %model._blocks.2._bn2.running_mean, %model._blocks.2._bn2.running_var) n %561 = Conv[dilations = [1, 1], group = 1, kernel_shape = [1, 1], pads = [0, 0, 0, 0], strides = [1, 1]](%560, %model._blocks.3._expand_conv.weight) n %562 = BatchNormalization[epsilon = 0.00100000004749745, momentum = 0.990000009536743](%561, %model._blocks.3._bn0.weight, %model._blocks.3._bn0.bias, %model._blocks.3._bn0.running_mean, %model._blocks.3._bn0.running_var) n %563 = Sigmoid(%562) n %564 = Mul(%562, %563) n %565 = Pad[mode = &#39;constant&#39;, pads = [0, 0, 1, 1, 0, 0, 1, 1], value = 0](%564) n %566 = Conv[dilations = [1, 1], group = 144, kernel_shape = [3, 3], pads = [0, 0, 0, 0], strides = [1, 1]](%565, %model._blocks.3._depthwise_conv.weight) n %567 = BatchNormalization[epsilon = 0.00100000004749745, momentum = 0.990000009536743](%566, %model._blocks.3._bn1.weight, %model._blocks.3._bn1.bias, %model._blocks.3._bn1.running_mean, %model._blocks.3._bn1.running_var) n %568 = Sigmoid(%567) n %569 = Mul(%567, %568) n %570 = GlobalAveragePool(%569) n %571 = Conv[dilations = [1, 1], group = 1, kernel_shape = [1, 1], pads = [0, 0, 0, 0], strides = [1, 1]](%570, %model._blocks.3._se_reduce.weight, %model._blocks.3._se_reduce.bias) n %572 = Sigmoid(%571) n %573 = Mul(%571, %572) n %574 = Conv[dilations = [1, 1], group = 1, kernel_shape = [1, 1], pads = [0, 0, 0, 0], strides = [1, 1]](%573, %model._blocks.3._se_expand.weight, %model._blocks.3._se_expand.bias) n %575 = Sigmoid(%574) n %576 = Mul(%575, %569) n %577 = Conv[dilations = [1, 1], group = 1, kernel_shape = [1, 1], pads = [0, 0, 0, 0], strides = [1, 1]](%576, %model._blocks.3._project_conv.weight) n %578 = BatchNormalization[epsilon = 0.00100000004749745, momentum = 0.990000009536743](%577, %model._blocks.3._bn2.weight, %model._blocks.3._bn2.bias, %model._blocks.3._bn2.running_mean, %model._blocks.3._bn2.running_var) n %579 = Add(%578, %560) n %580 = Conv[dilations = [1, 1], group = 1, kernel_shape = [1, 1], pads = [0, 0, 0, 0], strides = [1, 1]](%579, %model._blocks.4._expand_conv.weight) n %581 = BatchNormalization[epsilon = 0.00100000004749745, momentum = 0.990000009536743](%580, %model._blocks.4._bn0.weight, %model._blocks.4._bn0.bias, %model._blocks.4._bn0.running_mean, %model._blocks.4._bn0.running_var) n %582 = Sigmoid(%581) n %583 = Mul(%581, %582) n %584 = Pad[mode = &#39;constant&#39;, pads = [0, 0, 1, 1, 0, 0, 1, 1], value = 0](%583) n %585 = Conv[dilations = [1, 1], group = 144, kernel_shape = [3, 3], pads = [0, 0, 0, 0], strides = [1, 1]](%584, %model._blocks.4._depthwise_conv.weight) n %586 = BatchNormalization[epsilon = 0.00100000004749745, momentum = 0.990000009536743](%585, %model._blocks.4._bn1.weight, %model._blocks.4._bn1.bias, %model._blocks.4._bn1.running_mean, %model._blocks.4._bn1.running_var) n %587 = Sigmoid(%586) n %588 = Mul(%586, %587) n %589 = GlobalAveragePool(%588) n %590 = Conv[dilations = [1, 1], group = 1, kernel_shape = [1, 1], pads = [0, 0, 0, 0], strides = [1, 1]](%589, %model._blocks.4._se_reduce.weight, %model._blocks.4._se_reduce.bias) n %591 = Sigmoid(%590) n %592 = Mul(%590, %591) n %593 = Conv[dilations = [1, 1], group = 1, kernel_shape = [1, 1], pads = [0, 0, 0, 0], strides = [1, 1]](%592, %model._blocks.4._se_expand.weight, %model._blocks.4._se_expand.bias) n %594 = Sigmoid(%593) n %595 = Mul(%594, %588) n %596 = Conv[dilations = [1, 1], group = 1, kernel_shape = [1, 1], pads = [0, 0, 0, 0], strides = [1, 1]](%595, %model._blocks.4._project_conv.weight) n %597 = BatchNormalization[epsilon = 0.00100000004749745, momentum = 0.990000009536743](%596, %model._blocks.4._bn2.weight, %model._blocks.4._bn2.bias, %model._blocks.4._bn2.running_mean, %model._blocks.4._bn2.running_var) n %598 = Add(%597, %579) n %599 = Conv[dilations = [1, 1], group = 1, kernel_shape = [1, 1], pads = [0, 0, 0, 0], strides = [1, 1]](%598, %model._blocks.5._expand_conv.weight) n %600 = BatchNormalization[epsilon = 0.00100000004749745, momentum = 0.990000009536743](%599, %model._blocks.5._bn0.weight, %model._blocks.5._bn0.bias, %model._blocks.5._bn0.running_mean, %model._blocks.5._bn0.running_var) n %601 = Sigmoid(%600) n %602 = Mul(%600, %601) n %603 = Pad[mode = &#39;constant&#39;, pads = [0, 0, 2, 2, 0, 0, 2, 2], value = 0](%602) n %604 = Conv[dilations = [1, 1], group = 144, kernel_shape = [5, 5], pads = [0, 0, 0, 0], strides = [2, 2]](%603, %model._blocks.5._depthwise_conv.weight) n %605 = BatchNormalization[epsilon = 0.00100000004749745, momentum = 0.990000009536743](%604, %model._blocks.5._bn1.weight, %model._blocks.5._bn1.bias, %model._blocks.5._bn1.running_mean, %model._blocks.5._bn1.running_var) n %606 = Sigmoid(%605) n %607 = Mul(%605, %606) n %608 = GlobalAveragePool(%607) n %609 = Conv[dilations = [1, 1], group = 1, kernel_shape = [1, 1], pads = [0, 0, 0, 0], strides = [1, 1]](%608, %model._blocks.5._se_reduce.weight, %model._blocks.5._se_reduce.bias) n %610 = Sigmoid(%609) n %611 = Mul(%609, %610) n %612 = Conv[dilations = [1, 1], group = 1, kernel_shape = [1, 1], pads = [0, 0, 0, 0], strides = [1, 1]](%611, %model._blocks.5._se_expand.weight, %model._blocks.5._se_expand.bias) n %613 = Sigmoid(%612) n %614 = Mul(%613, %607) n %615 = Conv[dilations = [1, 1], group = 1, kernel_shape = [1, 1], pads = [0, 0, 0, 0], strides = [1, 1]](%614, %model._blocks.5._project_conv.weight) n %616 = BatchNormalization[epsilon = 0.00100000004749745, momentum = 0.990000009536743](%615, %model._blocks.5._bn2.weight, %model._blocks.5._bn2.bias, %model._blocks.5._bn2.running_mean, %model._blocks.5._bn2.running_var) n %617 = Conv[dilations = [1, 1], group = 1, kernel_shape = [1, 1], pads = [0, 0, 0, 0], strides = [1, 1]](%616, %model._blocks.6._expand_conv.weight) n %618 = BatchNormalization[epsilon = 0.00100000004749745, momentum = 0.990000009536743](%617, %model._blocks.6._bn0.weight, %model._blocks.6._bn0.bias, %model._blocks.6._bn0.running_mean, %model._blocks.6._bn0.running_var) n %619 = Sigmoid(%618) n %620 = Mul(%618, %619) n %621 = Pad[mode = &#39;constant&#39;, pads = [0, 0, 2, 2, 0, 0, 2, 2], value = 0](%620) n %622 = Conv[dilations = [1, 1], group = 240, kernel_shape = [5, 5], pads = [0, 0, 0, 0], strides = [1, 1]](%621, %model._blocks.6._depthwise_conv.weight) n %623 = BatchNormalization[epsilon = 0.00100000004749745, momentum = 0.990000009536743](%622, %model._blocks.6._bn1.weight, %model._blocks.6._bn1.bias, %model._blocks.6._bn1.running_mean, %model._blocks.6._bn1.running_var) n %624 = Sigmoid(%623) n %625 = Mul(%623, %624) n %626 = GlobalAveragePool(%625) n %627 = Conv[dilations = [1, 1], group = 1, kernel_shape = [1, 1], pads = [0, 0, 0, 0], strides = [1, 1]](%626, %model._blocks.6._se_reduce.weight, %model._blocks.6._se_reduce.bias) n %628 = Sigmoid(%627) n %629 = Mul(%627, %628) n %630 = Conv[dilations = [1, 1], group = 1, kernel_shape = [1, 1], pads = [0, 0, 0, 0], strides = [1, 1]](%629, %model._blocks.6._se_expand.weight, %model._blocks.6._se_expand.bias) n %631 = Sigmoid(%630) n %632 = Mul(%631, %625) n %633 = Conv[dilations = [1, 1], group = 1, kernel_shape = [1, 1], pads = [0, 0, 0, 0], strides = [1, 1]](%632, %model._blocks.6._project_conv.weight) n %634 = BatchNormalization[epsilon = 0.00100000004749745, momentum = 0.990000009536743](%633, %model._blocks.6._bn2.weight, %model._blocks.6._bn2.bias, %model._blocks.6._bn2.running_mean, %model._blocks.6._bn2.running_var) n %635 = Add(%634, %616) n %636 = Conv[dilations = [1, 1], group = 1, kernel_shape = [1, 1], pads = [0, 0, 0, 0], strides = [1, 1]](%635, %model._blocks.7._expand_conv.weight) n %637 = BatchNormalization[epsilon = 0.00100000004749745, momentum = 0.990000009536743](%636, %model._blocks.7._bn0.weight, %model._blocks.7._bn0.bias, %model._blocks.7._bn0.running_mean, %model._blocks.7._bn0.running_var) n %638 = Sigmoid(%637) n %639 = Mul(%637, %638) n %640 = Pad[mode = &#39;constant&#39;, pads = [0, 0, 2, 2, 0, 0, 2, 2], value = 0](%639) n %641 = Conv[dilations = [1, 1], group = 240, kernel_shape = [5, 5], pads = [0, 0, 0, 0], strides = [1, 1]](%640, %model._blocks.7._depthwise_conv.weight) n %642 = BatchNormalization[epsilon = 0.00100000004749745, momentum = 0.990000009536743](%641, %model._blocks.7._bn1.weight, %model._blocks.7._bn1.bias, %model._blocks.7._bn1.running_mean, %model._blocks.7._bn1.running_var) n %643 = Sigmoid(%642) n %644 = Mul(%642, %643) n %645 = GlobalAveragePool(%644) n %646 = Conv[dilations = [1, 1], group = 1, kernel_shape = [1, 1], pads = [0, 0, 0, 0], strides = [1, 1]](%645, %model._blocks.7._se_reduce.weight, %model._blocks.7._se_reduce.bias) n %647 = Sigmoid(%646) n %648 = Mul(%646, %647) n %649 = Conv[dilations = [1, 1], group = 1, kernel_shape = [1, 1], pads = [0, 0, 0, 0], strides = [1, 1]](%648, %model._blocks.7._se_expand.weight, %model._blocks.7._se_expand.bias) n %650 = Sigmoid(%649) n %651 = Mul(%650, %644) n %652 = Conv[dilations = [1, 1], group = 1, kernel_shape = [1, 1], pads = [0, 0, 0, 0], strides = [1, 1]](%651, %model._blocks.7._project_conv.weight) n %653 = BatchNormalization[epsilon = 0.00100000004749745, momentum = 0.990000009536743](%652, %model._blocks.7._bn2.weight, %model._blocks.7._bn2.bias, %model._blocks.7._bn2.running_mean, %model._blocks.7._bn2.running_var) n %654 = Add(%653, %635) n %655 = Conv[dilations = [1, 1], group = 1, kernel_shape = [1, 1], pads = [0, 0, 0, 0], strides = [1, 1]](%654, %model._blocks.8._expand_conv.weight) n %656 = BatchNormalization[epsilon = 0.00100000004749745, momentum = 0.990000009536743](%655, %model._blocks.8._bn0.weight, %model._blocks.8._bn0.bias, %model._blocks.8._bn0.running_mean, %model._blocks.8._bn0.running_var) n %657 = Sigmoid(%656) n %658 = Mul(%656, %657) n %659 = Pad[mode = &#39;constant&#39;, pads = [0, 0, 1, 1, 0, 0, 1, 1], value = 0](%658) n %660 = Conv[dilations = [1, 1], group = 240, kernel_shape = [3, 3], pads = [0, 0, 0, 0], strides = [2, 2]](%659, %model._blocks.8._depthwise_conv.weight) n %661 = BatchNormalization[epsilon = 0.00100000004749745, momentum = 0.990000009536743](%660, %model._blocks.8._bn1.weight, %model._blocks.8._bn1.bias, %model._blocks.8._bn1.running_mean, %model._blocks.8._bn1.running_var) n %662 = Sigmoid(%661) n %663 = Mul(%661, %662) n %664 = GlobalAveragePool(%663) n %665 = Conv[dilations = [1, 1], group = 1, kernel_shape = [1, 1], pads = [0, 0, 0, 0], strides = [1, 1]](%664, %model._blocks.8._se_reduce.weight, %model._blocks.8._se_reduce.bias) n %666 = Sigmoid(%665) n %667 = Mul(%665, %666) n %668 = Conv[dilations = [1, 1], group = 1, kernel_shape = [1, 1], pads = [0, 0, 0, 0], strides = [1, 1]](%667, %model._blocks.8._se_expand.weight, %model._blocks.8._se_expand.bias) n %669 = Sigmoid(%668) n %670 = Mul(%669, %663) n %671 = Conv[dilations = [1, 1], group = 1, kernel_shape = [1, 1], pads = [0, 0, 0, 0], strides = [1, 1]](%670, %model._blocks.8._project_conv.weight) n %672 = BatchNormalization[epsilon = 0.00100000004749745, momentum = 0.990000009536743](%671, %model._blocks.8._bn2.weight, %model._blocks.8._bn2.bias, %model._blocks.8._bn2.running_mean, %model._blocks.8._bn2.running_var) n %673 = Conv[dilations = [1, 1], group = 1, kernel_shape = [1, 1], pads = [0, 0, 0, 0], strides = [1, 1]](%672, %model._blocks.9._expand_conv.weight) n %674 = BatchNormalization[epsilon = 0.00100000004749745, momentum = 0.990000009536743](%673, %model._blocks.9._bn0.weight, %model._blocks.9._bn0.bias, %model._blocks.9._bn0.running_mean, %model._blocks.9._bn0.running_var) n %675 = Sigmoid(%674) n %676 = Mul(%674, %675) n %677 = Pad[mode = &#39;constant&#39;, pads = [0, 0, 1, 1, 0, 0, 1, 1], value = 0](%676) n %678 = Conv[dilations = [1, 1], group = 480, kernel_shape = [3, 3], pads = [0, 0, 0, 0], strides = [1, 1]](%677, %model._blocks.9._depthwise_conv.weight) n %679 = BatchNormalization[epsilon = 0.00100000004749745, momentum = 0.990000009536743](%678, %model._blocks.9._bn1.weight, %model._blocks.9._bn1.bias, %model._blocks.9._bn1.running_mean, %model._blocks.9._bn1.running_var) n %680 = Sigmoid(%679) n %681 = Mul(%679, %680) n %682 = GlobalAveragePool(%681) n %683 = Conv[dilations = [1, 1], group = 1, kernel_shape = [1, 1], pads = [0, 0, 0, 0], strides = [1, 1]](%682, %model._blocks.9._se_reduce.weight, %model._blocks.9._se_reduce.bias) n %684 = Sigmoid(%683) n %685 = Mul(%683, %684) n %686 = Conv[dilations = [1, 1], group = 1, kernel_shape = [1, 1], pads = [0, 0, 0, 0], strides = [1, 1]](%685, %model._blocks.9._se_expand.weight, %model._blocks.9._se_expand.bias) n %687 = Sigmoid(%686) n %688 = Mul(%687, %681) n %689 = Conv[dilations = [1, 1], group = 1, kernel_shape = [1, 1], pads = [0, 0, 0, 0], strides = [1, 1]](%688, %model._blocks.9._project_conv.weight) n %690 = BatchNormalization[epsilon = 0.00100000004749745, momentum = 0.990000009536743](%689, %model._blocks.9._bn2.weight, %model._blocks.9._bn2.bias, %model._blocks.9._bn2.running_mean, %model._blocks.9._bn2.running_var) n %691 = Add(%690, %672) n %692 = Conv[dilations = [1, 1], group = 1, kernel_shape = [1, 1], pads = [0, 0, 0, 0], strides = [1, 1]](%691, %model._blocks.10._expand_conv.weight) n %693 = BatchNormalization[epsilon = 0.00100000004749745, momentum = 0.990000009536743](%692, %model._blocks.10._bn0.weight, %model._blocks.10._bn0.bias, %model._blocks.10._bn0.running_mean, %model._blocks.10._bn0.running_var) n %694 = Sigmoid(%693) n %695 = Mul(%693, %694) n %696 = Pad[mode = &#39;constant&#39;, pads = [0, 0, 1, 1, 0, 0, 1, 1], value = 0](%695) n %697 = Conv[dilations = [1, 1], group = 480, kernel_shape = [3, 3], pads = [0, 0, 0, 0], strides = [1, 1]](%696, %model._blocks.10._depthwise_conv.weight) n %698 = BatchNormalization[epsilon = 0.00100000004749745, momentum = 0.990000009536743](%697, %model._blocks.10._bn1.weight, %model._blocks.10._bn1.bias, %model._blocks.10._bn1.running_mean, %model._blocks.10._bn1.running_var) n %699 = Sigmoid(%698) n %700 = Mul(%698, %699) n %701 = GlobalAveragePool(%700) n %702 = Conv[dilations = [1, 1], group = 1, kernel_shape = [1, 1], pads = [0, 0, 0, 0], strides = [1, 1]](%701, %model._blocks.10._se_reduce.weight, %model._blocks.10._se_reduce.bias) n %703 = Sigmoid(%702) n %704 = Mul(%702, %703) n %705 = Conv[dilations = [1, 1], group = 1, kernel_shape = [1, 1], pads = [0, 0, 0, 0], strides = [1, 1]](%704, %model._blocks.10._se_expand.weight, %model._blocks.10._se_expand.bias) n %706 = Sigmoid(%705) n %707 = Mul(%706, %700) n %708 = Conv[dilations = [1, 1], group = 1, kernel_shape = [1, 1], pads = [0, 0, 0, 0], strides = [1, 1]](%707, %model._blocks.10._project_conv.weight) n %709 = BatchNormalization[epsilon = 0.00100000004749745, momentum = 0.990000009536743](%708, %model._blocks.10._bn2.weight, %model._blocks.10._bn2.bias, %model._blocks.10._bn2.running_mean, %model._blocks.10._bn2.running_var) n %710 = Add(%709, %691) n %711 = Conv[dilations = [1, 1], group = 1, kernel_shape = [1, 1], pads = [0, 0, 0, 0], strides = [1, 1]](%710, %model._blocks.11._expand_conv.weight) n %712 = BatchNormalization[epsilon = 0.00100000004749745, momentum = 0.990000009536743](%711, %model._blocks.11._bn0.weight, %model._blocks.11._bn0.bias, %model._blocks.11._bn0.running_mean, %model._blocks.11._bn0.running_var) n %713 = Sigmoid(%712) n %714 = Mul(%712, %713) n %715 = Pad[mode = &#39;constant&#39;, pads = [0, 0, 1, 1, 0, 0, 1, 1], value = 0](%714) n %716 = Conv[dilations = [1, 1], group = 480, kernel_shape = [3, 3], pads = [0, 0, 0, 0], strides = [1, 1]](%715, %model._blocks.11._depthwise_conv.weight) n %717 = BatchNormalization[epsilon = 0.00100000004749745, momentum = 0.990000009536743](%716, %model._blocks.11._bn1.weight, %model._blocks.11._bn1.bias, %model._blocks.11._bn1.running_mean, %model._blocks.11._bn1.running_var) n %718 = Sigmoid(%717) n %719 = Mul(%717, %718) n %720 = GlobalAveragePool(%719) n %721 = Conv[dilations = [1, 1], group = 1, kernel_shape = [1, 1], pads = [0, 0, 0, 0], strides = [1, 1]](%720, %model._blocks.11._se_reduce.weight, %model._blocks.11._se_reduce.bias) n %722 = Sigmoid(%721) n %723 = Mul(%721, %722) n %724 = Conv[dilations = [1, 1], group = 1, kernel_shape = [1, 1], pads = [0, 0, 0, 0], strides = [1, 1]](%723, %model._blocks.11._se_expand.weight, %model._blocks.11._se_expand.bias) n %725 = Sigmoid(%724) n %726 = Mul(%725, %719) n %727 = Conv[dilations = [1, 1], group = 1, kernel_shape = [1, 1], pads = [0, 0, 0, 0], strides = [1, 1]](%726, %model._blocks.11._project_conv.weight) n %728 = BatchNormalization[epsilon = 0.00100000004749745, momentum = 0.990000009536743](%727, %model._blocks.11._bn2.weight, %model._blocks.11._bn2.bias, %model._blocks.11._bn2.running_mean, %model._blocks.11._bn2.running_var) n %729 = Add(%728, %710) n %730 = Conv[dilations = [1, 1], group = 1, kernel_shape = [1, 1], pads = [0, 0, 0, 0], strides = [1, 1]](%729, %model._blocks.12._expand_conv.weight) n %731 = BatchNormalization[epsilon = 0.00100000004749745, momentum = 0.990000009536743](%730, %model._blocks.12._bn0.weight, %model._blocks.12._bn0.bias, %model._blocks.12._bn0.running_mean, %model._blocks.12._bn0.running_var) n %732 = Sigmoid(%731) n %733 = Mul(%731, %732) n %734 = Pad[mode = &#39;constant&#39;, pads = [0, 0, 2, 2, 0, 0, 2, 2], value = 0](%733) n %735 = Conv[dilations = [1, 1], group = 480, kernel_shape = [5, 5], pads = [0, 0, 0, 0], strides = [1, 1]](%734, %model._blocks.12._depthwise_conv.weight) n %736 = BatchNormalization[epsilon = 0.00100000004749745, momentum = 0.990000009536743](%735, %model._blocks.12._bn1.weight, %model._blocks.12._bn1.bias, %model._blocks.12._bn1.running_mean, %model._blocks.12._bn1.running_var) n %737 = Sigmoid(%736) n %738 = Mul(%736, %737) n %739 = GlobalAveragePool(%738) n %740 = Conv[dilations = [1, 1], group = 1, kernel_shape = [1, 1], pads = [0, 0, 0, 0], strides = [1, 1]](%739, %model._blocks.12._se_reduce.weight, %model._blocks.12._se_reduce.bias) n %741 = Sigmoid(%740) n %742 = Mul(%740, %741) n %743 = Conv[dilations = [1, 1], group = 1, kernel_shape = [1, 1], pads = [0, 0, 0, 0], strides = [1, 1]](%742, %model._blocks.12._se_expand.weight, %model._blocks.12._se_expand.bias) n %744 = Sigmoid(%743) n %745 = Mul(%744, %738) n %746 = Conv[dilations = [1, 1], group = 1, kernel_shape = [1, 1], pads = [0, 0, 0, 0], strides = [1, 1]](%745, %model._blocks.12._project_conv.weight) n %747 = BatchNormalization[epsilon = 0.00100000004749745, momentum = 0.990000009536743](%746, %model._blocks.12._bn2.weight, %model._blocks.12._bn2.bias, %model._blocks.12._bn2.running_mean, %model._blocks.12._bn2.running_var) n %748 = Conv[dilations = [1, 1], group = 1, kernel_shape = [1, 1], pads = [0, 0, 0, 0], strides = [1, 1]](%747, %model._blocks.13._expand_conv.weight) n %749 = BatchNormalization[epsilon = 0.00100000004749745, momentum = 0.990000009536743](%748, %model._blocks.13._bn0.weight, %model._blocks.13._bn0.bias, %model._blocks.13._bn0.running_mean, %model._blocks.13._bn0.running_var) n %750 = Sigmoid(%749) n %751 = Mul(%749, %750) n %752 = Pad[mode = &#39;constant&#39;, pads = [0, 0, 2, 2, 0, 0, 2, 2], value = 0](%751) n %753 = Conv[dilations = [1, 1], group = 672, kernel_shape = [5, 5], pads = [0, 0, 0, 0], strides = [1, 1]](%752, %model._blocks.13._depthwise_conv.weight) n %754 = BatchNormalization[epsilon = 0.00100000004749745, momentum = 0.990000009536743](%753, %model._blocks.13._bn1.weight, %model._blocks.13._bn1.bias, %model._blocks.13._bn1.running_mean, %model._blocks.13._bn1.running_var) n %755 = Sigmoid(%754) n %756 = Mul(%754, %755) n %757 = GlobalAveragePool(%756) n %758 = Conv[dilations = [1, 1], group = 1, kernel_shape = [1, 1], pads = [0, 0, 0, 0], strides = [1, 1]](%757, %model._blocks.13._se_reduce.weight, %model._blocks.13._se_reduce.bias) n %759 = Sigmoid(%758) n %760 = Mul(%758, %759) n %761 = Conv[dilations = [1, 1], group = 1, kernel_shape = [1, 1], pads = [0, 0, 0, 0], strides = [1, 1]](%760, %model._blocks.13._se_expand.weight, %model._blocks.13._se_expand.bias) n %762 = Sigmoid(%761) n %763 = Mul(%762, %756) n %764 = Conv[dilations = [1, 1], group = 1, kernel_shape = [1, 1], pads = [0, 0, 0, 0], strides = [1, 1]](%763, %model._blocks.13._project_conv.weight) n %765 = BatchNormalization[epsilon = 0.00100000004749745, momentum = 0.990000009536743](%764, %model._blocks.13._bn2.weight, %model._blocks.13._bn2.bias, %model._blocks.13._bn2.running_mean, %model._blocks.13._bn2.running_var) n %766 = Add(%765, %747) n %767 = Conv[dilations = [1, 1], group = 1, kernel_shape = [1, 1], pads = [0, 0, 0, 0], strides = [1, 1]](%766, %model._blocks.14._expand_conv.weight) n %768 = BatchNormalization[epsilon = 0.00100000004749745, momentum = 0.990000009536743](%767, %model._blocks.14._bn0.weight, %model._blocks.14._bn0.bias, %model._blocks.14._bn0.running_mean, %model._blocks.14._bn0.running_var) n %769 = Sigmoid(%768) n %770 = Mul(%768, %769) n %771 = Pad[mode = &#39;constant&#39;, pads = [0, 0, 2, 2, 0, 0, 2, 2], value = 0](%770) n %772 = Conv[dilations = [1, 1], group = 672, kernel_shape = [5, 5], pads = [0, 0, 0, 0], strides = [1, 1]](%771, %model._blocks.14._depthwise_conv.weight) n %773 = BatchNormalization[epsilon = 0.00100000004749745, momentum = 0.990000009536743](%772, %model._blocks.14._bn1.weight, %model._blocks.14._bn1.bias, %model._blocks.14._bn1.running_mean, %model._blocks.14._bn1.running_var) n %774 = Sigmoid(%773) n %775 = Mul(%773, %774) n %776 = GlobalAveragePool(%775) n %777 = Conv[dilations = [1, 1], group = 1, kernel_shape = [1, 1], pads = [0, 0, 0, 0], strides = [1, 1]](%776, %model._blocks.14._se_reduce.weight, %model._blocks.14._se_reduce.bias) n %778 = Sigmoid(%777) n %779 = Mul(%777, %778) n %780 = Conv[dilations = [1, 1], group = 1, kernel_shape = [1, 1], pads = [0, 0, 0, 0], strides = [1, 1]](%779, %model._blocks.14._se_expand.weight, %model._blocks.14._se_expand.bias) n %781 = Sigmoid(%780) n %782 = Mul(%781, %775) n %783 = Conv[dilations = [1, 1], group = 1, kernel_shape = [1, 1], pads = [0, 0, 0, 0], strides = [1, 1]](%782, %model._blocks.14._project_conv.weight) n %784 = BatchNormalization[epsilon = 0.00100000004749745, momentum = 0.990000009536743](%783, %model._blocks.14._bn2.weight, %model._blocks.14._bn2.bias, %model._blocks.14._bn2.running_mean, %model._blocks.14._bn2.running_var) n %785 = Add(%784, %766) n %786 = Conv[dilations = [1, 1], group = 1, kernel_shape = [1, 1], pads = [0, 0, 0, 0], strides = [1, 1]](%785, %model._blocks.15._expand_conv.weight) n %787 = BatchNormalization[epsilon = 0.00100000004749745, momentum = 0.990000009536743](%786, %model._blocks.15._bn0.weight, %model._blocks.15._bn0.bias, %model._blocks.15._bn0.running_mean, %model._blocks.15._bn0.running_var) n %788 = Sigmoid(%787) n %789 = Mul(%787, %788) n %790 = Pad[mode = &#39;constant&#39;, pads = [0, 0, 2, 2, 0, 0, 2, 2], value = 0](%789) n %791 = Conv[dilations = [1, 1], group = 672, kernel_shape = [5, 5], pads = [0, 0, 0, 0], strides = [1, 1]](%790, %model._blocks.15._depthwise_conv.weight) n %792 = BatchNormalization[epsilon = 0.00100000004749745, momentum = 0.990000009536743](%791, %model._blocks.15._bn1.weight, %model._blocks.15._bn1.bias, %model._blocks.15._bn1.running_mean, %model._blocks.15._bn1.running_var) n %793 = Sigmoid(%792) n %794 = Mul(%792, %793) n %795 = GlobalAveragePool(%794) n %796 = Conv[dilations = [1, 1], group = 1, kernel_shape = [1, 1], pads = [0, 0, 0, 0], strides = [1, 1]](%795, %model._blocks.15._se_reduce.weight, %model._blocks.15._se_reduce.bias) n %797 = Sigmoid(%796) n %798 = Mul(%796, %797) n %799 = Conv[dilations = [1, 1], group = 1, kernel_shape = [1, 1], pads = [0, 0, 0, 0], strides = [1, 1]](%798, %model._blocks.15._se_expand.weight, %model._blocks.15._se_expand.bias) n %800 = Sigmoid(%799) n %801 = Mul(%800, %794) n %802 = Conv[dilations = [1, 1], group = 1, kernel_shape = [1, 1], pads = [0, 0, 0, 0], strides = [1, 1]](%801, %model._blocks.15._project_conv.weight) n %803 = BatchNormalization[epsilon = 0.00100000004749745, momentum = 0.990000009536743](%802, %model._blocks.15._bn2.weight, %model._blocks.15._bn2.bias, %model._blocks.15._bn2.running_mean, %model._blocks.15._bn2.running_var) n %804 = Add(%803, %785) n %805 = Conv[dilations = [1, 1], group = 1, kernel_shape = [1, 1], pads = [0, 0, 0, 0], strides = [1, 1]](%804, %model._blocks.16._expand_conv.weight) n %806 = BatchNormalization[epsilon = 0.00100000004749745, momentum = 0.990000009536743](%805, %model._blocks.16._bn0.weight, %model._blocks.16._bn0.bias, %model._blocks.16._bn0.running_mean, %model._blocks.16._bn0.running_var) n %807 = Sigmoid(%806) n %808 = Mul(%806, %807) n %809 = Pad[mode = &#39;constant&#39;, pads = [0, 0, 2, 2, 0, 0, 2, 2], value = 0](%808) n %810 = Conv[dilations = [1, 1], group = 672, kernel_shape = [5, 5], pads = [0, 0, 0, 0], strides = [2, 2]](%809, %model._blocks.16._depthwise_conv.weight) n %811 = BatchNormalization[epsilon = 0.00100000004749745, momentum = 0.990000009536743](%810, %model._blocks.16._bn1.weight, %model._blocks.16._bn1.bias, %model._blocks.16._bn1.running_mean, %model._blocks.16._bn1.running_var) n %812 = Sigmoid(%811) n %813 = Mul(%811, %812) n %814 = GlobalAveragePool(%813) n %815 = Conv[dilations = [1, 1], group = 1, kernel_shape = [1, 1], pads = [0, 0, 0, 0], strides = [1, 1]](%814, %model._blocks.16._se_reduce.weight, %model._blocks.16._se_reduce.bias) n %816 = Sigmoid(%815) n %817 = Mul(%815, %816) n %818 = Conv[dilations = [1, 1], group = 1, kernel_shape = [1, 1], pads = [0, 0, 0, 0], strides = [1, 1]](%817, %model._blocks.16._se_expand.weight, %model._blocks.16._se_expand.bias) n %819 = Sigmoid(%818) n %820 = Mul(%819, %813) n %821 = Conv[dilations = [1, 1], group = 1, kernel_shape = [1, 1], pads = [0, 0, 0, 0], strides = [1, 1]](%820, %model._blocks.16._project_conv.weight) n %822 = BatchNormalization[epsilon = 0.00100000004749745, momentum = 0.990000009536743](%821, %model._blocks.16._bn2.weight, %model._blocks.16._bn2.bias, %model._blocks.16._bn2.running_mean, %model._blocks.16._bn2.running_var) n %823 = Conv[dilations = [1, 1], group = 1, kernel_shape = [1, 1], pads = [0, 0, 0, 0], strides = [1, 1]](%822, %model._blocks.17._expand_conv.weight) n %824 = BatchNormalization[epsilon = 0.00100000004749745, momentum = 0.990000009536743](%823, %model._blocks.17._bn0.weight, %model._blocks.17._bn0.bias, %model._blocks.17._bn0.running_mean, %model._blocks.17._bn0.running_var) n %825 = Sigmoid(%824) n %826 = Mul(%824, %825) n %827 = Pad[mode = &#39;constant&#39;, pads = [0, 0, 2, 2, 0, 0, 2, 2], value = 0](%826) n %828 = Conv[dilations = [1, 1], group = 1152, kernel_shape = [5, 5], pads = [0, 0, 0, 0], strides = [1, 1]](%827, %model._blocks.17._depthwise_conv.weight) n %829 = BatchNormalization[epsilon = 0.00100000004749745, momentum = 0.990000009536743](%828, %model._blocks.17._bn1.weight, %model._blocks.17._bn1.bias, %model._blocks.17._bn1.running_mean, %model._blocks.17._bn1.running_var) n %830 = Sigmoid(%829) n %831 = Mul(%829, %830) n %832 = GlobalAveragePool(%831) n %833 = Conv[dilations = [1, 1], group = 1, kernel_shape = [1, 1], pads = [0, 0, 0, 0], strides = [1, 1]](%832, %model._blocks.17._se_reduce.weight, %model._blocks.17._se_reduce.bias) n %834 = Sigmoid(%833) n %835 = Mul(%833, %834) n %836 = Conv[dilations = [1, 1], group = 1, kernel_shape = [1, 1], pads = [0, 0, 0, 0], strides = [1, 1]](%835, %model._blocks.17._se_expand.weight, %model._blocks.17._se_expand.bias) n %837 = Sigmoid(%836) n %838 = Mul(%837, %831) n %839 = Conv[dilations = [1, 1], group = 1, kernel_shape = [1, 1], pads = [0, 0, 0, 0], strides = [1, 1]](%838, %model._blocks.17._project_conv.weight) n %840 = BatchNormalization[epsilon = 0.00100000004749745, momentum = 0.990000009536743](%839, %model._blocks.17._bn2.weight, %model._blocks.17._bn2.bias, %model._blocks.17._bn2.running_mean, %model._blocks.17._bn2.running_var) n %841 = Add(%840, %822) n %842 = Conv[dilations = [1, 1], group = 1, kernel_shape = [1, 1], pads = [0, 0, 0, 0], strides = [1, 1]](%841, %model._blocks.18._expand_conv.weight) n %843 = BatchNormalization[epsilon = 0.00100000004749745, momentum = 0.990000009536743](%842, %model._blocks.18._bn0.weight, %model._blocks.18._bn0.bias, %model._blocks.18._bn0.running_mean, %model._blocks.18._bn0.running_var) n %844 = Sigmoid(%843) n %845 = Mul(%843, %844) n %846 = Pad[mode = &#39;constant&#39;, pads = [0, 0, 2, 2, 0, 0, 2, 2], value = 0](%845) n %847 = Conv[dilations = [1, 1], group = 1152, kernel_shape = [5, 5], pads = [0, 0, 0, 0], strides = [1, 1]](%846, %model._blocks.18._depthwise_conv.weight) n %848 = BatchNormalization[epsilon = 0.00100000004749745, momentum = 0.990000009536743](%847, %model._blocks.18._bn1.weight, %model._blocks.18._bn1.bias, %model._blocks.18._bn1.running_mean, %model._blocks.18._bn1.running_var) n %849 = Sigmoid(%848) n %850 = Mul(%848, %849) n %851 = GlobalAveragePool(%850) n %852 = Conv[dilations = [1, 1], group = 1, kernel_shape = [1, 1], pads = [0, 0, 0, 0], strides = [1, 1]](%851, %model._blocks.18._se_reduce.weight, %model._blocks.18._se_reduce.bias) n %853 = Sigmoid(%852) n %854 = Mul(%852, %853) n %855 = Conv[dilations = [1, 1], group = 1, kernel_shape = [1, 1], pads = [0, 0, 0, 0], strides = [1, 1]](%854, %model._blocks.18._se_expand.weight, %model._blocks.18._se_expand.bias) n %856 = Sigmoid(%855) n %857 = Mul(%856, %850) n %858 = Conv[dilations = [1, 1], group = 1, kernel_shape = [1, 1], pads = [0, 0, 0, 0], strides = [1, 1]](%857, %model._blocks.18._project_conv.weight) n %859 = BatchNormalization[epsilon = 0.00100000004749745, momentum = 0.990000009536743](%858, %model._blocks.18._bn2.weight, %model._blocks.18._bn2.bias, %model._blocks.18._bn2.running_mean, %model._blocks.18._bn2.running_var) n %860 = Add(%859, %841) n %861 = Conv[dilations = [1, 1], group = 1, kernel_shape = [1, 1], pads = [0, 0, 0, 0], strides = [1, 1]](%860, %model._blocks.19._expand_conv.weight) n %862 = BatchNormalization[epsilon = 0.00100000004749745, momentum = 0.990000009536743](%861, %model._blocks.19._bn0.weight, %model._blocks.19._bn0.bias, %model._blocks.19._bn0.running_mean, %model._blocks.19._bn0.running_var) n %863 = Sigmoid(%862) n %864 = Mul(%862, %863) n %865 = Pad[mode = &#39;constant&#39;, pads = [0, 0, 2, 2, 0, 0, 2, 2], value = 0](%864) n %866 = Conv[dilations = [1, 1], group = 1152, kernel_shape = [5, 5], pads = [0, 0, 0, 0], strides = [1, 1]](%865, %model._blocks.19._depthwise_conv.weight) n %867 = BatchNormalization[epsilon = 0.00100000004749745, momentum = 0.990000009536743](%866, %model._blocks.19._bn1.weight, %model._blocks.19._bn1.bias, %model._blocks.19._bn1.running_mean, %model._blocks.19._bn1.running_var) n %868 = Sigmoid(%867) n %869 = Mul(%867, %868) n %870 = GlobalAveragePool(%869) n %871 = Conv[dilations = [1, 1], group = 1, kernel_shape = [1, 1], pads = [0, 0, 0, 0], strides = [1, 1]](%870, %model._blocks.19._se_reduce.weight, %model._blocks.19._se_reduce.bias) n %872 = Sigmoid(%871) n %873 = Mul(%871, %872) n %874 = Conv[dilations = [1, 1], group = 1, kernel_shape = [1, 1], pads = [0, 0, 0, 0], strides = [1, 1]](%873, %model._blocks.19._se_expand.weight, %model._blocks.19._se_expand.bias) n %875 = Sigmoid(%874) n %876 = Mul(%875, %869) n %877 = Conv[dilations = [1, 1], group = 1, kernel_shape = [1, 1], pads = [0, 0, 0, 0], strides = [1, 1]](%876, %model._blocks.19._project_conv.weight) n %878 = BatchNormalization[epsilon = 0.00100000004749745, momentum = 0.990000009536743](%877, %model._blocks.19._bn2.weight, %model._blocks.19._bn2.bias, %model._blocks.19._bn2.running_mean, %model._blocks.19._bn2.running_var) n %879 = Add(%878, %860) n %880 = Conv[dilations = [1, 1], group = 1, kernel_shape = [1, 1], pads = [0, 0, 0, 0], strides = [1, 1]](%879, %model._blocks.20._expand_conv.weight) n %881 = BatchNormalization[epsilon = 0.00100000004749745, momentum = 0.990000009536743](%880, %model._blocks.20._bn0.weight, %model._blocks.20._bn0.bias, %model._blocks.20._bn0.running_mean, %model._blocks.20._bn0.running_var) n %882 = Sigmoid(%881) n %883 = Mul(%881, %882) n %884 = Pad[mode = &#39;constant&#39;, pads = [0, 0, 2, 2, 0, 0, 2, 2], value = 0](%883) n %885 = Conv[dilations = [1, 1], group = 1152, kernel_shape = [5, 5], pads = [0, 0, 0, 0], strides = [1, 1]](%884, %model._blocks.20._depthwise_conv.weight) n %886 = BatchNormalization[epsilon = 0.00100000004749745, momentum = 0.990000009536743](%885, %model._blocks.20._bn1.weight, %model._blocks.20._bn1.bias, %model._blocks.20._bn1.running_mean, %model._blocks.20._bn1.running_var) n %887 = Sigmoid(%886) n %888 = Mul(%886, %887) n %889 = GlobalAveragePool(%888) n %890 = Conv[dilations = [1, 1], group = 1, kernel_shape = [1, 1], pads = [0, 0, 0, 0], strides = [1, 1]](%889, %model._blocks.20._se_reduce.weight, %model._blocks.20._se_reduce.bias) n %891 = Sigmoid(%890) n %892 = Mul(%890, %891) n %893 = Conv[dilations = [1, 1], group = 1, kernel_shape = [1, 1], pads = [0, 0, 0, 0], strides = [1, 1]](%892, %model._blocks.20._se_expand.weight, %model._blocks.20._se_expand.bias) n %894 = Sigmoid(%893) n %895 = Mul(%894, %888) n %896 = Conv[dilations = [1, 1], group = 1, kernel_shape = [1, 1], pads = [0, 0, 0, 0], strides = [1, 1]](%895, %model._blocks.20._project_conv.weight) n %897 = BatchNormalization[epsilon = 0.00100000004749745, momentum = 0.990000009536743](%896, %model._blocks.20._bn2.weight, %model._blocks.20._bn2.bias, %model._blocks.20._bn2.running_mean, %model._blocks.20._bn2.running_var) n %898 = Add(%897, %879) n %899 = Conv[dilations = [1, 1], group = 1, kernel_shape = [1, 1], pads = [0, 0, 0, 0], strides = [1, 1]](%898, %model._blocks.21._expand_conv.weight) n %900 = BatchNormalization[epsilon = 0.00100000004749745, momentum = 0.990000009536743](%899, %model._blocks.21._bn0.weight, %model._blocks.21._bn0.bias, %model._blocks.21._bn0.running_mean, %model._blocks.21._bn0.running_var) n %901 = Sigmoid(%900) n %902 = Mul(%900, %901) n %903 = Pad[mode = &#39;constant&#39;, pads = [0, 0, 1, 1, 0, 0, 1, 1], value = 0](%902) n %904 = Conv[dilations = [1, 1], group = 1152, kernel_shape = [3, 3], pads = [0, 0, 0, 0], strides = [1, 1]](%903, %model._blocks.21._depthwise_conv.weight) n %905 = BatchNormalization[epsilon = 0.00100000004749745, momentum = 0.990000009536743](%904, %model._blocks.21._bn1.weight, %model._blocks.21._bn1.bias, %model._blocks.21._bn1.running_mean, %model._blocks.21._bn1.running_var) n %906 = Sigmoid(%905) n %907 = Mul(%905, %906) n %908 = GlobalAveragePool(%907) n %909 = Conv[dilations = [1, 1], group = 1, kernel_shape = [1, 1], pads = [0, 0, 0, 0], strides = [1, 1]](%908, %model._blocks.21._se_reduce.weight, %model._blocks.21._se_reduce.bias) n %910 = Sigmoid(%909) n %911 = Mul(%909, %910) n %912 = Conv[dilations = [1, 1], group = 1, kernel_shape = [1, 1], pads = [0, 0, 0, 0], strides = [1, 1]](%911, %model._blocks.21._se_expand.weight, %model._blocks.21._se_expand.bias) n %913 = Sigmoid(%912) n %914 = Mul(%913, %907) n %915 = Conv[dilations = [1, 1], group = 1, kernel_shape = [1, 1], pads = [0, 0, 0, 0], strides = [1, 1]](%914, %model._blocks.21._project_conv.weight) n %916 = BatchNormalization[epsilon = 0.00100000004749745, momentum = 0.990000009536743](%915, %model._blocks.21._bn2.weight, %model._blocks.21._bn2.bias, %model._blocks.21._bn2.running_mean, %model._blocks.21._bn2.running_var) n %917 = Conv[dilations = [1, 1], group = 1, kernel_shape = [1, 1], pads = [0, 0, 0, 0], strides = [1, 1]](%916, %model._blocks.22._expand_conv.weight) n %918 = BatchNormalization[epsilon = 0.00100000004749745, momentum = 0.990000009536743](%917, %model._blocks.22._bn0.weight, %model._blocks.22._bn0.bias, %model._blocks.22._bn0.running_mean, %model._blocks.22._bn0.running_var) n %919 = Sigmoid(%918) n %920 = Mul(%918, %919) n %921 = Pad[mode = &#39;constant&#39;, pads = [0, 0, 1, 1, 0, 0, 1, 1], value = 0](%920) n %922 = Conv[dilations = [1, 1], group = 1920, kernel_shape = [3, 3], pads = [0, 0, 0, 0], strides = [1, 1]](%921, %model._blocks.22._depthwise_conv.weight) n %923 = BatchNormalization[epsilon = 0.00100000004749745, momentum = 0.990000009536743](%922, %model._blocks.22._bn1.weight, %model._blocks.22._bn1.bias, %model._blocks.22._bn1.running_mean, %model._blocks.22._bn1.running_var) n %924 = Sigmoid(%923) n %925 = Mul(%923, %924) n %926 = GlobalAveragePool(%925) n %927 = Conv[dilations = [1, 1], group = 1, kernel_shape = [1, 1], pads = [0, 0, 0, 0], strides = [1, 1]](%926, %model._blocks.22._se_reduce.weight, %model._blocks.22._se_reduce.bias) n %928 = Sigmoid(%927) n %929 = Mul(%927, %928) n %930 = Conv[dilations = [1, 1], group = 1, kernel_shape = [1, 1], pads = [0, 0, 0, 0], strides = [1, 1]](%929, %model._blocks.22._se_expand.weight, %model._blocks.22._se_expand.bias) n %931 = Sigmoid(%930) n %932 = Mul(%931, %925) n %933 = Conv[dilations = [1, 1], group = 1, kernel_shape = [1, 1], pads = [0, 0, 0, 0], strides = [1, 1]](%932, %model._blocks.22._project_conv.weight) n %934 = BatchNormalization[epsilon = 0.00100000004749745, momentum = 0.990000009536743](%933, %model._blocks.22._bn2.weight, %model._blocks.22._bn2.bias, %model._blocks.22._bn2.running_mean, %model._blocks.22._bn2.running_var) n %935 = Add(%934, %916) n %936 = Conv[dilations = [1, 1], group = 1, kernel_shape = [1, 1], pads = [0, 0, 0, 0], strides = [1, 1]](%935, %model._conv_head.weight) n %937 = BatchNormalization[epsilon = 0.00100000004749745, momentum = 0.990000009536743](%936, %model._bn1.weight, %model._bn1.bias, %model._bn1.running_mean, %model._bn1.running_var) n %938 = Sigmoid(%937) n %939 = Mul(%937, %938) n %940 = GlobalAveragePool(%939) n %941 = Flatten[axis = 1](%940) n %output = Gemm[alpha = 1, beta = 1, transB = 1](%941, %model._fc.weight, %model._fc.bias) n return %output n}&#34; . import onnxruntime import numpy as np ort_session = onnxruntime.InferenceSession(&quot;model_lightnining_export.onnx&quot;) def to_numpy(tensor): return tensor.detach().cpu().numpy() if tensor.requires_grad else tensor.cpu().numpy() ##We set the batch size to the dynamic_axes, so we can use batch of any size we like, 10 in this example # compute ONNX Runtime output prediction ort_inputs = {ort_session.get_inputs()[0].name: to_numpy(X[:10])} ort_outs = ort_session.run(None, ort_inputs) # compare ONNX Runtime and PyTorch results np.testing.assert_allclose(to_numpy(torch_out[:10]), ort_outs[0], rtol=1e-03, atol=1e-05) print(&quot;Exported model has been tested with ONNXRuntime, and the result looks good!&quot;) . Exported model has been tested with ONNXRuntime, and the result looks good! . ort_outs[0].shape . (10, 10) . Summary . We have shown how to easily export the PyTorch Lightning module to ONNX format. Neural networks in such format can be easily deployed as a production model both on the cloud and on IoT devices. It can also be used to effortlessly migrate between different frameworks such as PyTorch, Tensorflow, or Caffe2. .",
            "url": "https://tugot17.github.io/data-science-blog/xai/lime/2020/09/21/Exporting-lightning-model-to-onnx.html",
            "relUrl": "/xai/lime/2020/09/21/Exporting-lightning-model-to-onnx.html",
            "date": " • Sep 21, 2020"
        }
        
    
  
    
        ,"post1": {
            "title": "Overview and visualization of pixel-level transforms from albumentations package",
            "content": "Image augmentation is a machine learning technique that &quot;boomed&quot; in recent years along with the large deep learning systems. In this article, we present a visualization of pixel level augmentation techniques available in the albumentations. . The provided descriptions mostly come the official project documentation available at https://albumentations.ai/ . Links to the official documentation below: . Blur | CLAHE | ChannelDropout | ChannelShuffle | Downscale | Equalize | FDA | FancyPCA | FromFloat | GaussNoise | GaussianBlur | GlassBlur | HistogramMatching | HueSaturationValue | IAAAdditiveGaussianNoise | IAAEmboss | IAASharpen | IAASuperpixels | ISONoise | ImageCompression | InvertImg | MedianBlur | MotionBlur | MultiplicativeNoise | Normalize | Posterize | RGBShift | RandomBrightnessContrast | RandomFog | RandomGamma | RandomRain | RandomShadow | RandomSnow | RandomSunFlare | Solarize | ToFloat | ToGray | ToSepia | . Image that will be transformed . from os.path import join from PIL import Image import numpy as np . path = join(&quot;lime_image&quot;, &quot;husky_test&quot;, &quot;5.JPG&quot;) img = Image.open(path) img = img.resize((384, 384)) img . image = np.asarray(img) . Blur . Blur the input image using a random-sized kernel. . from albumentations.augmentations.transforms import Blur blur_limit=10 transform = Blur(blur_limit, p=1.0) augmented_image = transform(image=image)[&#39;image&#39;] Image.fromarray(augmented_image) . CLAHE . Apply Contrast Limited Adaptive Histogram Equalization to the input image. . from albumentations.augmentations.transforms import CLAHE clip_limit=6.0 tile_grid_size=(10, 10) transform = CLAHE(clip_limit, tile_grid_size, p=1.0) augmented_image = transform(image=image)[&#39;image&#39;] Image.fromarray(augmented_image) . ChannelDropout . Randomly Drop Channels in the input Image. . from albumentations.augmentations.transforms import ChannelDropout channel_drop_range=(1, 2) fill_value=0 transform = ChannelDropout(channel_drop_range, fill_value, p=1.0) augmented_image = transform(image=image)[&#39;image&#39;] Image.fromarray(augmented_image) . ChannelShuffle . Randomly rearrange channels of the input RGB image. . from albumentations.augmentations.transforms import ChannelShuffle transform = ChannelShuffle(p=1.0) augmented_image = transform(image=image)[&#39;image&#39;] Image.fromarray(augmented_image) . Downscale . Decreases image quality by downscaling and upscaling back. . from albumentations.augmentations.transforms import Downscale scale_min=0.25 scale_max=0.25 interpolation=0 transform = Downscale(scale_min, scale_max, interpolation=0, p=1.0) augmented_image = transform(image=image)[&#39;image&#39;] Image.fromarray(augmented_image) . Equalize . Equalize the image histogram. . from albumentations.augmentations.transforms import Equalize mode=&#39;pil&#39; by_channels=True mask=None mask_params=() transform = Equalize(mode, by_channels, mask, mask_params, p=1.0) augmented_image = transform(image=image)[&#39;image&#39;] Image.fromarray(augmented_image) . FancyPCA . Augment RGB image using FancyPCA from Krizhevsky&#39;s paper &quot;ImageNet Classification with Deep Convolutional Neural Networks&quot; . alpha = how much to perturb/scale the eigen vecs and vals. scale is samples from gaussian distribution (mu=0, sigma=alpha) . from albumentations.augmentations.transforms import FancyPCA alpha=1.0 transform = FancyPCA(alpha, p=1.0) augmented_image = transform(image=image)[&#39;image&#39;] Image.fromarray(augmented_image) . GaussNoise . Apply gaussian noise to the input image. . from albumentations.augmentations.transforms import GaussNoise var_limit=(10.0, 50.0) mean=-50 transform = GaussNoise(var_limit, mean, p=1.0) augmented_image = transform(image=image)[&#39;image&#39;] Image.fromarray(augmented_image) . GaussianBlur . Blur the input image using using a Gaussian filter with a random kernel size. . from albumentations.augmentations.transforms import GaussianBlur blur_limit=(3, 7) sigma_limit=0 transform = GaussianBlur(blur_limit, sigma_limit, p=1.0) augmented_image = transform(image=image)[&#39;image&#39;] Image.fromarray(augmented_image) . GlassBlur . Apply glass noise to the input image. . from albumentations.augmentations.transforms import GlassBlur sigma=0.1 max_delta=1 iterations=5 transform = GlassBlur(sigma, max_delta, iterations, p=1.0) augmented_image = transform(image=image)[&#39;image&#39;] Image.fromarray(augmented_image) . HueSaturationValue . Randomly change hue, saturation and value of the input image. . from albumentations.augmentations.transforms import HueSaturationValue hue_shift_limit=50 sat_shift_limit=50 val_shift_limit=20 transform = HueSaturationValue(hue_shift_limit, sat_shift_limit, val_shift_limit, p=1.0) augmented_image = transform(image=image)[&#39;image&#39;] Image.fromarray(augmented_image) . IAAAdditiveGaussianNoise . Add gaussian noise to the input image. . from albumentations.imgaug.transforms import IAAAdditiveGaussianNoise loc=0 scale=(0.1, 20) per_channel=False transform = IAAAdditiveGaussianNoise(loc, scale, per_channel, p=1.0) augmented_image = transform(image=image)[&#39;image&#39;] Image.fromarray(augmented_image) . IAAEmboss . Emboss the input image and overlays the result with the original image. . from albumentations.imgaug.transforms import IAAEmboss alpha=(0.2, 1.0) strength=(0.2, 0.7) transform = IAAEmboss(alpha, strength, p=1.0) augmented_image = transform(image=image)[&#39;image&#39;] Image.fromarray(augmented_image) . IAASharpen . Sharpen the input image and overlays the result with the original image. . from albumentations.imgaug.transforms import IAASharpen alpha=(0.2, 0.5) lightness=(0.5, 1.0) transform = IAASharpen(alpha, lightness, p=1.0) augmented_image = transform(image=image)[&#39;image&#39;] Image.fromarray(augmented_image) . IAASuperpixels . Completely or partially transform the input image to its superpixel representation. Uses skimage&#39;s version of the SLIC algorithm. May be slow. . from albumentations.imgaug.transforms import IAASuperpixels p_replace=0.5 n_segments=10 transform = IAASuperpixels(p_replace, n_segments, p=1.0) augmented_image = transform(image=image)[&#39;image&#39;] Image.fromarray(augmented_image) . ISONoise . Apply camera sensor noise. . from albumentations.augmentations.transforms import ISONoise color_shift=(0.01, 0.05) intensity=(0.1, 0.5) transform = ISONoise(color_shift, intensity, p=1.0) augmented_image = transform(image=image)[&#39;image&#39;] Image.fromarray(augmented_image) . ImageCompression . Decrease Jpeg, WebP compression of an image. . from albumentations.augmentations.transforms import ImageCompression quality_lower=1 quality_upper=10 transform = ImageCompression(quality_lower, quality_upper, p=1.0) augmented_image = transform(image=image)[&#39;image&#39;] Image.fromarray(augmented_image) . InvertImg . Invert the input image by subtracting pixel values from 255. . from albumentations.augmentations.transforms import InvertImg transform = InvertImg(p=1.0) augmented_image = transform(image=image)[&#39;image&#39;] Image.fromarray(augmented_image) . MedianBlur . Blur the input image using using a median filter with a random aperture linear size. . from albumentations.augmentations.transforms import MedianBlur blur_limit=5 transform = MedianBlur(blur_limit, p=1.0) augmented_image = transform(image=image)[&#39;image&#39;] Image.fromarray(augmented_image) . MotionBlur . Apply motion blur to the input image using a random-sized kernel. . from albumentations.augmentations.transforms import MotionBlur blur_limit = 31 transform = MotionBlur(blur_limit, p=1.0) augmented_image = transform(image=image)[&#39;image&#39;] Image.fromarray(augmented_image) . MultiplicativeNoise . Multiply image to random number or array of numbers. . from albumentations.augmentations.transforms import MultiplicativeNoise multiplier=(0.9, 1.1) per_channel=True elementwise=False transform = MultiplicativeNoise(multiplier, per_channel, elementwise, p=1.0) augmented_image = transform(image=image)[&#39;image&#39;] Image.fromarray(augmented_image) . Normalize . Divide pixel values by 255 = 2**8 - 1, subtract mean per channel and divide by std per channel. . from albumentations.augmentations.transforms import Normalize mean=(0.485, 0.456, 0.406) std=(0.229, 0.224, 0.225) transform = Normalize(mean, std, p=1.0) augmented_image = transform(image=image)[&#39;image&#39;] augmented_image . array([[[ 0.05693975, 1.1155462 , 2.2391286 ], [ 0.039815 , 1.0980392 , 2.2216992 ], [ 0.07406451, 1.1330532 , 2.2565577 ], ..., [ … ..., [ … ..., [ 0.12543876, 1.2380952 , 2.3437037 ], [ 0.17681302, 1.2906162 , 2.3959913 ], [ 0.15968828, 1.2731092 , 2.378562 ]], ..., [[-1.3301653 , -0.687675 , -1.6998693 ], [-0.30268008, 0.46778712, -1.6301525 ], [ 0.02269025, 0.6253501 , -0.8109804 ], ..., [… ..., [… ..., [-0.88492167, -0.10994395, -0.70640516], [-1.5870366 , -0.827731 , -0.9329847 ], [-1.8610326 , -1.212885 , -1.1944226 ]]], dtype=float32) . Posterize . Reduce the number of bits for each color channel. . from albumentations.augmentations.transforms import Posterize num_bits=3 transform = Posterize(num_bits, p=1.0) augmented_image = transform(image=image)[&#39;image&#39;] Image.fromarray(augmented_image) . RGBShift . Randomly shift values for each channel of the input RGB image. . from albumentations.augmentations.transforms import RGBShift r_shift_limit=50 g_shift_limit=50 b_shift_limit=50 transform = RGBShift(r_shift_limit, g_shift_limit, b_shift_limit, p=1.0) augmented_image = transform(image=image)[&#39;image&#39;] Image.fromarray(augmented_image) . RandomBrightnessContrast . Randomly change brightness and contrast of the input image. . from albumentations.augmentations.transforms import RandomBrightnessContrast brightness_limit=0.5 contrast_limit=0.2 brightness_by_max=True transform = RandomBrightnessContrast(brightness_limit, contrast_limit, brightness_by_max, p=1.0) augmented_image = transform(image=image)[&#39;image&#39;] Image.fromarray(augmented_image) . RandomFog . Simulates fog for the image . from albumentations.augmentations.transforms import RandomFog fog_coef_lower=0.3 fog_coef_upper=0.5 alpha_coef=0.08 transform = RandomFog(fog_coef_lower, fog_coef_upper, alpha_coef, p=1.0) augmented_image = transform(image=image)[&#39;image&#39;] Image.fromarray(augmented_image) . RandomGamma . No description . from albumentations.augmentations.transforms import RandomGamma gamma_limit=(80, 200) transform = RandomGamma (gamma_limit, p=1.0) augmented_image = transform(image=image)[&#39;image&#39;] Image.fromarray(augmented_image) . RandomRain . Adds rain effects . from albumentations.augmentations.transforms import RandomRain slant_lower=-1 slant_upper=1 drop_length=20 drop_width=1 drop_color=(50, 50, 50) blur_value=4 brightness_coefficient=0.7 rain_type=&quot;drizzle&quot; transform = RandomRain (slant_lower, slant_upper, drop_length, drop_width, drop_color, blur_value, brightness_coefficient, rain_type, p=1.0) augmented_image = transform(image=image)[&#39;image&#39;] Image.fromarray(augmented_image) . RandomShadow . from albumentations.augmentations.transforms import RandomShadow shadow_roi=(0, 0.5, 1, 1) num_shadows_lower=5 num_shadows_upper=5 shadow_dimension=5 transform = RandomShadow(shadow_roi, num_shadows_lower, num_shadows_upper, shadow_dimension, p=1.0) augmented_image = transform(image=image)[&#39;image&#39;] Image.fromarray(augmented_image) . RandomSnow . Bleach out some pixel values simulating snow. . from albumentations.augmentations.transforms import RandomSnow snow_point_lower=0.1 snow_point_upper=0.2 brightness_coeff=2.5 transform = RandomSnow(snow_point_lower, snow_point_upper, brightness_coeff, p=1.0) augmented_image = transform(image=image)[&#39;image&#39;] Image.fromarray(augmented_image) . RandomSunFlare . Simulates Sun Flare for the image . from albumentations.augmentations.transforms import RandomSunFlare flare_roi=(0, 0, 1, 0.5) angle_lower=0 angle_upper=1 num_flare_circles_lower=6 num_flare_circles_upper=10 src_radius=200 src_color=(255, 255, 255) transform = RandomSunFlare(flare_roi, angle_lower, angle_upper, num_flare_circles_lower, num_flare_circles_upper, src_radius, src_color, p=1.0) augmented_image = transform(image=image)[&#39;image&#39;] Image.fromarray(augmented_image) . Solarize . Invert all pixel values above a threshold. . from albumentations.augmentations.transforms import Solarize transform = Solarize(threshold=200, p=1.0) augmented_image = transform(image=image)[&#39;image&#39;] Image.fromarray(augmented_image) . ToFloat . Divide pixel values by max_value to get a float32 output array where all values lie in the range [0, 1.0]. If max_value is None the transform will try to infer the maximum value by inspecting the data type of the input image. . from albumentations.augmentations.transforms import ToFloat max_value = None transform = ToFloat(max_value, p=1.0) augmented_image = transform(image=image)[&#39;image&#39;] augmented_image . array([[[0.49803922, 0.7058824 , 0.9098039 ], [0.49411765, 0.7019608 , 0.90588236], [0.5019608 , 0.70980394, 0.9137255 ], ..., [… ..., [… ..., [0.5137255 , 0.73333335, 0.93333334], [0.5254902 , 0.74509805, 0.94509804], [0.52156866, 0.7411765 , 0.9411765 ]], ..., [[0.18039216, 0.3019608 , 0.02352941], [0.41568628, 0.56078434, 0.03921569], [0.49019608, 0.59607846, 0.22352941], ..., [… ..., [0.23137255, 0.36078432, 0.20392157], [0.04705882, 0.17254902, 0.11372549], [0. , 0.09019608, 0.06666667]], [[0.5411765 , 0.6431373 , 0.3529412 ], [0.654902 , 0.8235294 , 0.3019608 ], [0.73333335, 0.8235294 , 0.20784314], ..., [0.28235295, 0.43137255, 0.24705882], [0.12156863, 0.27058825, 0.19607843], [0.05882353, 0.18431373, 0.13725491]]], dtype=float32) . ToGray . Convert the input RGB image to grayscale. If the mean pixel value for the resulting image is greater than 127, invert the resulting grayscale image. . from albumentations.augmentations.transforms import ToGray transform = ToGray(p=1.0) augmented_image = transform(image=image)[&#39;image&#39;] print(augmented_image.shape) Image.fromarray(augmented_image) . (384, 384, 3) . ToSepia . Applies sepia filter to the input RGB image . from albumentations.augmentations.transforms import ToSepia transform = ToSepia(p=1.0) augmented_image = transform(image=image)[&#39;image&#39;] Image.fromarray(augmented_image) .",
            "url": "https://tugot17.github.io/data-science-blog/albumentations/data-augmentation/2020/09/20/Pixel-level-transforms-using-albumentations-package.html",
            "relUrl": "/albumentations/data-augmentation/2020/09/20/Pixel-level-transforms-using-albumentations-package.html",
            "date": " • Sep 20, 2020"
        }
        
    
  
    
        ,"post2": {
            "title": "Overview and visualization of spatial-level transforms from albumentations package",
            "content": "Image augmentation is a machine learning technique that &quot;boomed&quot; in recent years along with the large deep learning systems. In this article, we present a visualization of spatial-level augmentation techniques available in the albumentations. . The provided descriptions mostly come the official project documentation available at https://albumentations.ai/ . Some of the transformations can only be applied to images, others also to bboxes and keypoints, the below table (from https://github.com/albumentations-team/albumentations#spatial-level-transforms) describes it in detail . Transform Image Masks BBoxes Keypoints . CenterCrop | ✓ | ✓ | ✓ | ✓ | . CoarseDropout | ✓ | ✓ | | | . Crop | ✓ | ✓ | ✓ | ✓ | . CropNonEmptyMaskIfExists | ✓ | ✓ | ✓ | ✓ | . ElasticTransform | ✓ | ✓ | | | . Flip | ✓ | ✓ | ✓ | ✓ | . GridDistortion | ✓ | ✓ | | | . GridDropout | ✓ | ✓ | | | . HorizontalFlip | ✓ | ✓ | ✓ | ✓ | . IAAAffine | ✓ | ✓ | ✓ | ✓ | . IAACropAndPad | ✓ | ✓ | ✓ | ✓ | . IAAFliplr | ✓ | ✓ | ✓ | ✓ | . IAAFlipud | ✓ | ✓ | ✓ | ✓ | . IAAPerspective | ✓ | ✓ | ✓ | ✓ | . IAAPiecewiseAffine | ✓ | ✓ | ✓ | ✓ | . Lambda | ✓ | ✓ | ✓ | ✓ | . LongestMaxSize | ✓ | ✓ | ✓ | ✓ | . MaskDropout | ✓ | ✓ | | | . NoOp | ✓ | ✓ | ✓ | ✓ | . OpticalDistortion | ✓ | ✓ | | | . PadIfNeeded | ✓ | ✓ | ✓ | ✓ | . RandomCrop | ✓ | ✓ | ✓ | ✓ | . RandomCropNearBBox | ✓ | ✓ | ✓ | ✓ | . RandomGridShuffle | ✓ | ✓ | | | . RandomResizedCrop | ✓ | ✓ | ✓ | ✓ | . RandomRotate90 | ✓ | ✓ | ✓ | ✓ | . RandomScale | ✓ | ✓ | ✓ | ✓ | . RandomSizedBBoxSafeCrop | ✓ | ✓ | ✓ | | . RandomSizedCrop | ✓ | ✓ | ✓ | ✓ | . Resize | ✓ | ✓ | ✓ | ✓ | . Rotate | ✓ | ✓ | ✓ | ✓ | . ShiftScaleRotate | ✓ | ✓ | ✓ | ✓ | . SmallestMaxSize | ✓ | ✓ | ✓ | ✓ | . Transpose | ✓ | ✓ | ✓ | ✓ | . VerticalFlip | ✓ | ✓ | ✓ | ✓ | . Image that will be transformed . from os.path import join from PIL import Image import numpy as np . path = join(&quot;lime_image&quot;, &quot;husky_train&quot;, &quot;47.jpg&quot;) img = Image.open(path) img = img.resize((384, 384)) img . image = np.asarray(img) . CenterCrop . Crop the central part of the input. . from albumentations.augmentations.transforms import CenterCrop height, width = 200, 200 transform = CenterCrop(height, width, p=1.0) augmented_image = transform(image=image)[&#39;image&#39;] Image.fromarray(augmented_image) . CoarseDropout . CoarseDropout of the rectangular regions in the image. . from albumentations.augmentations.transforms import CoarseDropout max_holes=10 max_height=50 max_width=8 min_holes=1 min_height=None min_width=None fill_value=255 mask_fill_value=None transform =CoarseDropout(max_holes, max_height, max_width, min_holes, min_height, min_width, fill_value, mask_fill_value, p=1.0) augmented_image = transform(image=image)[&#39;image&#39;] Image.fromarray(augmented_image) . Crop . Crop region from image. . from albumentations.augmentations.transforms import Crop x_min=0 y_min=0 x_max=384 y_max=200 transform =Crop(x_min, y_min, x_max, y_max, p=1.0) augmented_image = transform(image=image)[&#39;image&#39;] Image.fromarray(augmented_image) . ElasticTransform . Elastic deformation of images as described in [Simard2003]_ (with modifications). Based on https://gist.github.com/erniejunior/601cdf56d2b424757de5 . from albumentations.augmentations.transforms import ElasticTransform alpha=10 sigma=150 alpha_affine=50 interpolation=1 border_mode=4 value=17 mask_value=105 transform = ElasticTransform (alpha, sigma, alpha_affine, interpolation, border_mode, value, mask_value, p=1.0) augmented_image = transform(image=image)[&#39;image&#39;] Image.fromarray(augmented_image) . Flip . Flip the input either horizontally, vertically or both horizontally and vertically. . from albumentations.augmentations.transforms import Flip transform = Flip(p=1.0) d=-1 augmented_image = transform(image=image, d=d)[&#39;image&#39;] Image.fromarray(augmented_image) . GridDistortion . Add distorition to the image, not really well documanted, hyperparameters are not clear for me . from albumentations.augmentations.transforms import GridDistortion num_steps=50 distort_limit=0.5 interpolation=1 border_mode=4 value=None mask_value=None transform = GridDistortion(num_steps, distort_limit, interpolation, border_mode, value, mask_value, p=1.0) augmented_image = transform(image=image)[&#39;image&#39;] Image.fromarray(augmented_image) . GridDropout . GridDropout, drops out rectangular regions of an image and the corresponding mask in a grid fashion. . Inspired by Chen et al. paper from 2020, avalible here: https://arxiv.org/pdf/2001.04086.pdf . from albumentations.augmentations.transforms import GridDropout ratio=0.4 unit_size_min=2 unit_size_max=19 holes_number_x= 10 holes_number_y= 10 shift_x=100 shift_y=0 random_offset=False transform = GridDropout(ratio, unit_size_min, unit_size_max, holes_number_x, holes_number_y, shift_x, shift_y, random_offset, p=1.0) augmented_image = transform(image=image)[&#39;image&#39;] Image.fromarray(augmented_image) . HorizontalFlip . Flip the input horizontally around the y-axis. . from albumentations.augmentations.transforms import HorizontalFlip transform = HorizontalFlip(p=1.0) augmented_image = transform(image=image)[&#39;image&#39;] Image.fromarray(augmented_image) . IAAAffine . Place a regular grid of points on the input and randomly move the neighbourhood of these point around via affine transformations. . from albumentations.imgaug.transforms import IAAAffine scale=0.1 translate_percent=10 translate_px=None rotate=0.5 shear=0.5 order=1 cval=0 mode=&#39;reflect&#39; transform = IAAAffine(scale, translate_percent, translate_px, rotate, shear, order, cval, mode, p=1.0) augmented_image = transform(image=image)[&#39;image&#39;] Image.fromarray(augmented_image) . IAAAdditiveGaussianNoise . Add gaussian noise to the input image. . from albumentations.imgaug.transforms import IAAAdditiveGaussianNoise loc=50 scale=(5, 12.75) per_channel=True transform = IAAAdditiveGaussianNoise(loc, scale, per_channel, p=1.0) augmented_image = transform(image=image)[&#39;image&#39;] Image.fromarray(augmented_image) . IAAEmboss . Emboss the input image and overlays the result with the original image. . from albumentations.imgaug.transforms import IAAEmboss alpha=(0.2, 0.5) strength=(0.2, 0.7) transform = IAAEmboss(alpha, strength, p=1.0) augmented_image = transform(image=image)[&#39;image&#39;] Image.fromarray(augmented_image) . IAAPerspective . Perform a random four point perspective transform of the input. . from albumentations.augmentations.transforms import Flip transform = Flip(p=1.0) augmented_image = transform(image=image)[&#39;image&#39;] Image.fromarray(augmented_image) . IAAPiecewiseAffine . Perform a random four point perspective transform of the input. . from albumentations.imgaug.transforms import IAAPerspective scale=(0.3, 0.1) keep_size=True transform = IAAPerspective(scale, keep_size, p=1.0) augmented_image = transform(image=image)[&#39;image&#39;] Image.fromarray(augmented_image) . IAASharpen . Sharpen the input image and overlays the result with the original image. . from albumentations.imgaug.transforms import IAAPerspective alpha=(0.1, 0.3) lightness=(0.1, 1.0) transform = IAAPerspective(alpha, lightness, p=1.0) augmented_image = transform(image=image)[&#39;image&#39;] Image.fromarray(augmented_image) . IAASuperpixels . Completely or partially transform the input image to its superpixel representation. Uses skimage&#39;s version of the SLIC algorithm. May be slow. . from albumentations.imgaug.transforms import IAASuperpixels p_replace=0.5 n_segments=10 transform = IAASuperpixels(p_replace, n_segments, p=1.0) augmented_image = transform(image=image)[&#39;image&#39;] Image.fromarray(augmented_image) . LongestMaxSize . Rescale an image so that maximum side is equal to max_size, keeping the aspect ratio of the initial image. . from albumentations.augmentations.transforms import LongestMaxSize transform = LongestMaxSize(max_size=512, interpolation=1, p=1.0) augmented_image = transform(image=image)[&#39;image&#39;] Image.fromarray(augmented_image) . OpticalDistortion . No description, hyperparameters not clear . from albumentations.augmentations.transforms import OpticalDistortion distort_limit=2.5 shift_limit=0.9 interpolation=1 border_mode=4 value=None mask_value=None transform = OpticalDistortion(distort_limit, shift_limit, interpolation, border_mode, value, mask_value, p=1.0) augmented_image = transform(image=image)[&#39;image&#39;] Image.fromarray(augmented_image) . RandomCrop . Crop a random part of the input. . from albumentations.augmentations.transforms import RandomCrop height, width = 300, 200 transform = RandomCrop(height, width, p=1.0) augmented_image = transform(image=image)[&#39;image&#39;] Image.fromarray(augmented_image) . RandomGridShuffle . Random shuffle grid&#39;s cells on image. . from albumentations.augmentations.transforms import RandomGridShuffle transform = RandomGridShuffle(grid=(4, 3), p=1.0) augmented_image = transform(image=image)[&#39;image&#39;] Image.fromarray(augmented_image) . RandomResizedCrop . Torchvision&#39;s variant of crop a random part of the input and rescale it to some size. . from albumentations.augmentations.transforms import RandomResizedCrop height, width = 384, 384 scale=(0.08, 1.0) ratio=(0.75, 1.3333333333333333) interpolation=1 transform = RandomResizedCrop(height, width, scale, ratio, interpolation, p=1.0) augmented_image = transform(image=image)[&#39;image&#39;] Image.fromarray(augmented_image) . RandomRotate90 . Randomly rotate the input by 90 degrees zero or more times. . from albumentations.augmentations.transforms import RandomRotate90 transform = RandomRotate90(p=1.0) augmented_image = transform(image=image)[&#39;image&#39;] Image.fromarray(augmented_image) . RandomScale . Randomly resize the input. Output image size is different from the input image size. . from albumentations.augmentations.transforms import RandomScale scale_limit=0.5 interpolation=1 transform = RandomScale(scale_limit, interpolation, p=1.0) augmented_image = transform(image=image)[&#39;image&#39;] Image.fromarray(augmented_image) . RandomSizedCrop . Crop a random part of the input and rescale it to some size. . from albumentations.augmentations.transforms import RandomSizedCrop min_max_height = (150, 250) height = 384 width = 384 w2h_ratio = 0.5 interpolation=1 transform = RandomSizedCrop(min_max_height, height, width, w2h_ratio, interpolation, p=1.0) augmented_image = transform(image=image)[&#39;image&#39;] Image.fromarray(augmented_image) . Resize . Resize the input to the given height and width. . from albumentations.augmentations.transforms import Resize height, width = 200, 200 transform = Resize(height, width, interpolation=1, p=1.0) augmented_image = transform(image=image)[&#39;image&#39;] Image.fromarray(augmented_image) . Rotate . from albumentations.augmentations.transforms import Rotate limit=90 interpolation=1 border_mode=4 value=None mask_value=None transform = Rotate(limit, interpolation, border_mode, value, mask_value, p=1.0) augmented_image = transform(image=image)[&#39;image&#39;] Image.fromarray(augmented_image) . ShiftScaleRotate . Rescale an image so that minimum side is equal to max_size, keeping the aspect ratio of the initial image. . from albumentations.augmentations.transforms import ShiftScaleRotate shift_limit=0.0625 scale_limit=0.5 rotate_limit=90 interpolation=1 transform = ShiftScaleRotate(shift_limit, scale_limit, rotate_limit, interpolation, p=1.0) augmented_image = transform(image=image)[&#39;image&#39;] Image.fromarray(augmented_image) . SmallestMaxSize . from albumentations.augmentations.transforms import SmallestMaxSize max_size=500 interpolation=1 transform = SmallestMaxSize (max_size, interpolation, p=1.0) augmented_image = transform(image=image)[&#39;image&#39;] Image.fromarray(augmented_image) . Transpose . Transpose the input by swapping rows and columns. . from albumentations.augmentations.transforms import Transpose transform = Transpose(p=1.0) augmented_image = transform(image=image)[&#39;image&#39;] Image.fromarray(augmented_image) . VerticalFlip . Flip the input vertically around the x-axis. . from albumentations.augmentations.transforms import VerticalFlip transform = VerticalFlip(p=1.0) augmented_image = transform(image=image)[&#39;image&#39;] Image.fromarray(augmented_image) .",
            "url": "https://tugot17.github.io/data-science-blog/albumentations/data-augmentation/2020/09/17/Spatial-level-transforms-using-albumentations-package.html",
            "relUrl": "/albumentations/data-augmentation/2020/09/17/Spatial-level-transforms-using-albumentations-package.html",
            "date": " • Sep 17, 2020"
        }
        
    
  
    
        ,"post3": {
            "title": "Is it a wolf or is it snow? Using the LIME algorithm to investigate the bias in the decision-making process of a deep learning model",
            "content": "In 2016 Marco Riberio et al. proposed a new method for explaining AI models named LIME. Abbreviation LIME stands for Local Interpretable Model-Agnostic Explanations. The algorithm is capable of explaining any type of machine-learning model (that&#39;s why it is called &quot;model agnostic) and works well with tabular, language, and image data. . The LIME algorithm is available in the form of a python package, its code can be found on the Github at https://github.com/marcotcr/lime . In this tutorial, we will show how LIME can be applied to investigate the deep learning model behavior. We will show that despite the model achieving good accuracy on a validation set it actually doesn&#39;t work. Such behavior is caused by a biased dataset and may cause real harm when the model is used for real-world applications. It may be especially dangerous in the case of medical imagining where it is nearly impossible for a non-medical professional to say whether or not the analyzed dataset of x-ray images is somehow biased. . The proposed pet dataset contains two classes: Huskies and Wolves. The gathered data are intentionally biased - wolfs are always presented in a winter background with snow around them, while husky stand or lay on the grass. Even though it sounds obvious that such a dataset may cause a model to not perform well, it is still not so easy to spot this fact at a first glance, without having the prior knowledge about what is wrong. Riberio et al. gave such a dataset to the group of graduate students and only a minority of them spot the problem. Most of the students trusted the model based only on the accuracy metric. . The train set consists of 50 images of huskies and 50 images of wolfs. The validation set contains 5 images of huskies and 5 images of wolfs. In the validation set 8 images to come from a similar domain as the training set (a husky on the grass, a wolf in the snow) while in the case of two we intentionally changed the usual background (husky on the snow and wolf on the grass). . In this tutorial, we first train the torch model (resnet50) on the dataset, and then we use LIME to see which part of the image had the most significant contrubution to such prediction. The intuition behind is: if the model &quot;looks&quot; at the irrelevant part of the image then even if it is highly accurate on the validation set it probably doesn&#39;t work properly. The reason for that might be a biased dataset. In this case (wolf and husks) is relatively easy even for a layman to spot a problem, however, for a more complicated task (eg. classification of tumors on the images), it may be a highly complicated problem requiring lots of research and domain knowledge. . Imports . from os import listdir from os.path import join from torchvision import transforms import torch from torch.optim import lr_scheduler from torch import nn import torch.nn.functional as F import torchvision.models as models import pytorch_lightning as pl import albumentations as A from albumentations.pytorch import ToTensorV2 from skimage.segmentation import mark_boundaries from lime import lime_image from lime_image.dataset import HuskyWolfDataset from lime_image.datamodule import HuskyWolfDataModule import matplotlib.pyplot as plt from matplotlib.pyplot import imshow from PIL import Image from sklearn.metrics import accuracy_score . Data Visualisation . In order to get some intuition about how the data looks like let us visualize a few examples from both test and validations sets . Directories with gathered datasets . husky_train_path = join(&quot;lime_image&quot;, &quot;husky_train&quot;) wolf_train_path = join(&quot;lime_image&quot;, &quot;wolf_train&quot;) husky_test_path = join(&quot;lime_image&quot;, &quot;husky_test&quot;) wolf_test_path = join(&quot;lime_image&quot;, &quot;wolf_test&quot;) . Husky train . files = [(join(husky_train_path, file)) for file in listdir(husky_train_path)] imshow(Image.open(files[0]).resize((244, 244))) plt.show() imshow(Image.open(files[1]).resize((244, 244))) plt.show() imshow(Image.open(files[2]).resize((244, 244))) plt.show() . Husky test . files = [(join(husky_test_path, file)) for file in listdir(husky_test_path)] imshow(Image.open(files[0]).resize((244, 244))) plt.show() imshow(Image.open(files[1]).resize((244, 244))) plt.show() imshow(Image.open(files[4]).resize((244, 244))) plt.show() . Wofl train . files = [(join(wolf_train_path, file)) for file in listdir(wolf_train_path)] imshow(Image.open(files[0]).resize((244, 244))) plt.show() imshow(Image.open(files[1]).resize((244, 244))) plt.show() imshow(Image.open(files[2]).resize((244, 244))) plt.show() . Wofl test . files = [(join(wolf_test_path, file)) for file in listdir(wolf_test_path)] imshow(Image.open(files[0]).resize((244, 244))) plt.show() imshow(Image.open(files[1]).resize((244, 244))) plt.show() imshow(Image.open(files[2]).resize((244, 244))) plt.show() . Training the model . Define the model . As a base model, we will use resnet50. We will train it using PyTorch Lighting. Since our dataset is relatively small we will use the transfer learning technique and train only the last layer. . class WolfHuskyClassifier(pl.LightningModule): def __init__(self): super(WolfHuskyClassifier, self).__init__() self.criterion = nn.CrossEntropyLoss() self.model = models.resnet50(pretrained=True) ## Only the last layer is trained for p in self.model.parameters(): p.requires_grad = False self.num_ftrs = self.model.fc.in_features self.number_of_classes = 2 self.model.fc = nn.Linear(self.num_ftrs, self.number_of_classes) def forward(self, x): return self.model(x) def configure_optimizers(self): optimizer = torch.optim.Adam(self.parameters(), lr=1e-3) scheduler = lr_scheduler.StepLR(optimizer, step_size=7, gamma=0.1) return [optimizer], [scheduler] def training_step(self, batch, batch_idx): x, y = batch logits = self.forward(x) loss = self.criterion(logits, y) tensorboard_logs = {&#39;train_loss&#39;: loss} return {&#39;loss&#39;: loss, &#39;log&#39;: tensorboard_logs} def validation_step(self, batch, batch_idx): x, y = batch logits = self.forward(x) loss = self.criterion(logits, y) return {&quot;val_loss&quot;: loss} def validation_epoch_end(self, outputs): avg_loss = torch.stack([x[&quot;val_loss&quot;] for x in outputs]).mean() tensorboard_logs = {&quot;val_loss&quot; : avg_loss} return {&#39;avg_val_loss&#39;: avg_loss, &#39;log&#39;: tensorboard_logs} . Image augmentations . To artificially extend the dataset we will use random image transformations. To make it more &quot;understandable&quot; for a model we have to normalize it (we use standard ImageNet mean and std parameters). . val_transform = A.Compose([ A.Resize(224, 224), A.Normalize(mean=[0.485, 0.456, 0.406], std=[0.229, 0.224, 0.225]), ToTensorV2() ]) . train_transform = A.Compose([ A.Resize(400, 400), A.RandomCrop(224, 224), A.HorizontalFlip(), A.RandomRotate90(), A.ShiftScaleRotate(shift_limit=0.0625, scale_limit=0.50, rotate_limit=45, p=.75), A.Blur(blur_limit=3), A.OpticalDistortion(), A.GridDistortion(), A.HueSaturationValue(), A.Normalize( mean=[0.485, 0.456, 0.406], std=[0.229, 0.224, 0.225], ), ToTensorV2() ]) . Start training . pl.seed_everything(42) dm = HuskyWolfDataModule(2, train_transform, val_transform) model = WolfHuskyClassifier() trainer = pl.Trainer(max_epochs=20, gpus=0, accumulate_grad_batches=4, deterministic=True, early_stop_callback=True, ) trainer.fit(model, dm) . GPU available: False, used: False TPU available: False, using: 0 TPU cores | Name | Type | Params -- 0 | criterion | CrossEntropyLoss | 0 1 | model | ResNet | 23 M Saving latest checkpoint.. Epoch 00015: early stopping triggered. . . 1 . Check the model performance . wolf_husky_trainset = HuskyWolfDataset([husky_train_path, wolf_train_path], val_transform) wolf_husky_testset = HuskyWolfDataset([husky_test_path, wolf_test_path], val_transform) . model.eval() y_pred = [] y_true = [] for img, label in wolf_husky_trainset: pred = torch.argmax(model(img.unsqueeze(0))) y_pred.append(pred) y_true.append(label) print(f&quot;Accuracy on train: {accuracy_score(y_true, y_pred)}&quot;) print() wrong_preds = [] y_pred = [] y_true = [] for idx, (img, label) in enumerate(wolf_husky_testset): pred = torch.argmax(model(img.unsqueeze(0))) if pred != label: wrong_preds.append(idx) y_pred.append(pred) y_true.append(label) print() print(f&quot;Accuracy on validation: {accuracy_score(y_true, y_pred)}&quot;) print() print(f&quot;Wrong preds: {wrong_preds}&quot;) . Accuracy on train: 1.0 Accuracy on validation: 0.9090909090909091 Wrong preds: [6] . Metrics seems accurate, but does the model actually perform well in the task it was designed for? . First lets check the example where model didn&#39;t gave us a correct prediction. To do so we will use the LimeImageExplainer from the lime package . label_to_class = {0 : &quot;husky&quot;, 1 : &quot;wolf&quot;} . vanila_tranform = A.Compose([ A.Resize(224, 224), ]) visualisation_testset = HuskyWolfDataset([husky_test_path, wolf_test_path], vanila_tranform) investigated_img, real_label = visualisation_testset[wrong_preds[0]] . #collapse-hide def get_preprocess_transform(): &quot;https://github.com/marcotcr/lime/blob/master/doc/notebooks/Tutorial%20-%20images%20-%20Pytorch.ipynb&quot; normalize = transforms.Normalize(mean=[0.485, 0.456, 0.406], std=[0.229, 0.224, 0.225]) transf = transforms.Compose([ transforms.ToTensor(), normalize ]) return transf preprocess_transform = get_preprocess_transform() . . #collapse-hide def batch_predict(images): batch = torch.stack(tuple(preprocess_transform(i) for i in images), dim=0) device = torch.device(&quot;cuda&quot; if torch.cuda.is_available() else &quot;cpu&quot;) model.to(device) batch = batch.to(device) logits = model(batch) probs = F.softmax(logits, dim=1) return probs.detach().cpu().numpy() . . test_pred = batch_predict([investigated_img]) title = f&quot;Prediction: {label_to_class[test_pred.squeeze().argmax()]}, Real label: {label_to_class[real_label.item()]}&quot; plt.title(title) plt.imshow(investigated_img) . &lt;matplotlib.image.AxesImage at 0x7f77c808e730&gt; . explainer = lime_image.LimeImageExplainer() explanation = explainer.explain_instance( investigated_img, batch_predict, # classification function top_labels=1, hide_color=0, num_samples=1000) . . Visualize the explaination . As we can see it was the background that contributed most to the prediction (the green field). Actually the relevant part - the body of the wolf, correctly &quot;voted&quot; against image be classified as a husky. Despite that, the contribution of grass was more significant and the image was classified incorrectly. . Nevertheless, regardless of the final prediction, we can see that there is something inherently wrong about the model. It focuses itself on the irrelevant pieces of data and mostly ignores the relevant. It should be an alarming sound for any machine-learning practitioner that maybe something in the training process (presumably the data) is not correct. . temp, mask = explanation.get_image_and_mask(explanation.top_labels[0], positive_only=True, num_features=5, hide_rest=False) img_boundry1 = mark_boundaries(temp/255.0, mask) plt.title(title) plt.imshow(img_boundry1) . &lt;matplotlib.image.AxesImage at 0x7f77e2fa00d0&gt; . temp, mask = explanation.get_image_and_mask(explanation.top_labels[0], positive_only=False, num_features=10, hide_rest=False) img_boundry2 = mark_boundaries(temp/255.0, mask) plt.title(title) plt.imshow(img_boundry2) . &lt;matplotlib.image.AxesImage at 0x7f77c81b94f0&gt; . Ok, how about explainations for another images . Let us take 5 examples both classified correctly and let&#39;s use LIME to see at what the trained model is &quot;looking&quot; in the decision-making process. . Unsurprisingly in all cases, the background (grass/snow) has a significant impact on the outcome, which, as it was stated before should not be the case. On the other hand, we can see that our model is not totally useless. While making the decision, in some cases it still &quot;looks&quot; at the body of the animal, this can be a positive sing meaning that in case we provide the neural network with a less biased and more diverse data it might be able to classify the dataset correctly. . investigated_img_0, real_label_0 = visualisation_testset[5] investigated_img_1, real_label_1 = visualisation_testset[0] investigated_img_2, real_label_2 = visualisation_testset[3] investigated_img_3, real_label_3 = visualisation_testset[7] investigated_img_4, real_label_4 = visualisation_testset[9] . test_pred = batch_predict([investigated_img_0, investigated_img_1, investigated_img_2, investigated_img_3, investigated_img_4]) preds = test_pred.squeeze().argmax(axis=1) print(f&quot;Predictions: {preds}&quot;) print(f&quot;Real Labels: {real_label_0.item(), real_label_1.item(), real_label_2.item(), real_label_3.item(), real_label_4.item()}&quot;) . Predictions: [1 0 0 1 1] Real Labels: (1, 0, 0, 1, 1) . explainer = lime_image.LimeImageExplainer() explanation = explainer.explain_instance( investigated_img_0, batch_predict, # classification function top_labels=1, hide_color=0, num_samples=1000) temp, mask = explanation.get_image_and_mask(explanation.top_labels[0], positive_only=True, num_features=5, hide_rest=False) img_boundry1 = mark_boundaries(temp/255.0, mask) title = f&quot;Prediction {label_to_class[preds[0]]}, Real label: {label_to_class[real_label_0.item()]}&quot; plt.title(title) plt.imshow(img_boundry1) plt.show() temp, mask = explanation.get_image_and_mask(explanation.top_labels[0], positive_only=False, num_features=10, hide_rest=False) img_boundry2 = mark_boundaries(temp/255.0, mask) plt.title(title) plt.imshow(img_boundry2) . . &lt;matplotlib.image.AxesImage at 0x7f77e2f47970&gt; . explainer = lime_image.LimeImageExplainer() explanation = explainer.explain_instance( investigated_img_1, batch_predict, # classification function top_labels=1, hide_color=0, num_samples=1000) temp, mask = explanation.get_image_and_mask(explanation.top_labels[0], positive_only=True, num_features=5, hide_rest=False) img_boundry1 = mark_boundaries(temp/255.0, mask) title = f&quot;Prediction {label_to_class[preds[1]]}, Real label: {label_to_class[real_label_1.item()]}&quot; plt.title(title) plt.imshow(img_boundry1) plt.show() temp, mask = explanation.get_image_and_mask(explanation.top_labels[0], positive_only=False, num_features=10, hide_rest=False) img_boundry2 = mark_boundaries(temp/255.0, mask) plt.title(f&quot;Prediction {preds[1]}, Real label: {real_label_1} &quot;) plt.imshow(img_boundry2) plt.show() . . explainer = lime_image.LimeImageExplainer() explanation = explainer.explain_instance( investigated_img_2, batch_predict, # classification function top_labels=1, hide_color=0, num_samples=1000) temp, mask = explanation.get_image_and_mask(explanation.top_labels[0], positive_only=True, num_features=5, hide_rest=False) img_boundry1 = mark_boundaries(temp/255.0, mask) title = f&quot;Prediction {label_to_class[preds[2]]}, Real label: {label_to_class[real_label_2.item()]}&quot; plt.title(title) plt.imshow(img_boundry1) plt.show() temp, mask = explanation.get_image_and_mask(explanation.top_labels[0], positive_only=False, num_features=10, hide_rest=False) img_boundry2 = mark_boundaries(temp/255.0, mask) plt.title(f&quot;Prediction {preds[2]}, Real label: {real_label_2} &quot;) plt.imshow(img_boundry2) plt.show() . . explainer = lime_image.LimeImageExplainer() explanation = explainer.explain_instance( investigated_img_3, batch_predict, # classification function top_labels=1, hide_color=0, num_samples=1000) temp, mask = explanation.get_image_and_mask(explanation.top_labels[0], positive_only=True, num_features=5, hide_rest=False) img_boundry1 = mark_boundaries(temp/255.0, mask) title = f&quot;Prediction {label_to_class[preds[3]]}, Real label: {label_to_class[real_label_3.item()]}&quot; plt.title(title) plt.imshow(img_boundry1) plt.show() temp, mask = explanation.get_image_and_mask(explanation.top_labels[0], positive_only=False, num_features=10, hide_rest=False) img_boundry2 = mark_boundaries(temp/255.0, mask) plt.title(title) plt.imshow(img_boundry2) plt.show() . . explainer = lime_image.LimeImageExplainer() explanation = explainer.explain_instance( investigated_img_4, batch_predict, # classification function top_labels=1, hide_color=0, num_samples=1000) temp, mask = explanation.get_image_and_mask(explanation.top_labels[0], positive_only=True, num_features=5, hide_rest=False) img_boundry1 = mark_boundaries(temp/255.0, mask) title = f&quot;Prediction {label_to_class[preds[4]]}, Real label: {label_to_class[real_label_4.item()]}&quot; plt.title(title) plt.imshow(img_boundry1) plt.show() temp, mask = explanation.get_image_and_mask(explanation.top_labels[0], positive_only=False, num_features=10, hide_rest=False) img_boundry2 = mark_boundaries(temp/255.0, mask) plt.title(title) plt.imshow(img_boundry2) plt.show() . . Summary . We shown, how we can investigate the model performance using the LIME algorithm. A similar approach can be easily applied to tabular and language models as well. Using LIME gives the machine-learning practitioner a useful insight into the decision-making process of a model. . Based on a given explanation and prior experience of a human expert we can determine whether or not the trained model actually does what it is supposed to be doing. This additional insight may help us in removing the unwanted biases from the dataset or in removing irrelevant features from tabular data. . Further Reading . I highly recommend the original work of Marco Riberio et al. It is available online at https://arxiv.org/abs/1602.04938 . And other sources . A video by Cristian Arteaga in which he implements LIME for images from scratch . https://www.youtube.com/watch?v=ENa-w65P1xM&amp;feature=youtu.be . The original video by Marco Riberio. The author doesn&#39;t explain the LIME in detail but rather gives the viewer an overview about why we should care about explainability . https://www.youtube.com/watch?v=KP7-JtFMLo4&amp;feature=youtu.be . A presentation by Kasia Kulma which gives little bit more insights in the mechanism behind Lime . https://www.youtube.com/watch?v=CY3t11vuuOM&amp;feature=youtu.be .",
            "url": "https://tugot17.github.io/data-science-blog/xai/lime/2020/09/09/LIME-biased-dataset.html",
            "relUrl": "/xai/lime/2020/09/09/LIME-biased-dataset.html",
            "date": " • Sep 9, 2020"
        }
        
    
  

  
  

  
      ,"page1": {
          "title": "About Me",
          "content": "My github account can be found here here. .",
          "url": "https://tugot17.github.io/data-science-blog/about/",
          "relUrl": "/about/",
          "date": ""
      }
      
  

  

  
  

  

  
  

  

  
  

  
  

  
  

  
      ,"page10": {
          "title": "",
          "content": "Sitemap: {{ “sitemap.xml” | absolute_url }} | .",
          "url": "https://tugot17.github.io/data-science-blog/robots.txt",
          "relUrl": "/robots.txt",
          "date": ""
      }
      
  

}